weights/best_nb.pth (torch, 40407 bytes, 15 tensors)

policy.stem.0.weight f4 [64, 4]
000000 41 c8 83 bd d5 29 35 3f d3 db bc 3e 0b 72 26 3f
       -0.0643468 0.70766956 0.36886463 0.65017766
000010 98 6b 88 3d 4d 3a f3 3f d2 3b 9b be 1b d8 0a 3e
       0.06661147 1.9002167 -0.30319077 0.13559
000020 cd 85 a7 3e 8a f7 b2 be 8b 2f 77 3f 91 ec 1e 3f
       0.3271927 -0.34954482 0.9655692 0.6207972
000030 f4 cb 13 3e c5 ce 48 bf 87 65 38 bf 7b a4 e9 bf
       0.1443327 -0.78440505 -0.7202992 -1.825332
000040 21 f5 34 3e 4e 20 b6 3e e8 78 af 3f 68 52 a2 3f
       0.17671634 0.35571522 1.3708773 1.2681398
000050 cc bc 57 3e e4 8a 97 3f 94 9c fa 3e fa b2 df 3f
       0.21068114 1.1839261 0.48947585 1.7476494
000060 e6 ff b1 3d fd fc 80 bd 2d b7 87 bf 81 3a 21 bf
       0.08691387 -0.06298254 -1.0602776 -0.62979895
000070 e8 ad c5 3d 42 a7 57 bf 19 c1 88 be 2a c4 62 bf
       0.096523106 -0.8423959 -0.26709822 -0.8858057
000080 fc 5e 00 3f 81 36 7f 3f cd 21 22 3f 0d a4 ae 3f
       0.50144935 0.9969254 0.63332826 1.3643814
000090 c9 d5 64 3e ee b5 c0 3e 7d 91 8d 3f b0 b8 e9 3f
       0.22347178 0.376388 1.1060024 1.8259487
0000a0 75 f9 12 3f 72 38 1e 3f 32 b4 70 bf c7 a8 b1 bf
       0.5741189 0.6180488 -0.94024956 -1.3879632
0000b0 98 14 a3 3e 27 76 86 be c6 29 a7 bb ad c0 64 3f
       0.3185165 -0.26262018 -0.0051014153 0.893565
0000c0 ea 17 62 be 99 a4 ef bf e7 2d 57 be e5 05 90 3e
       -0.22079435 -1.8722106 -0.21013604 0.28129497
0000d0 83 8a b9 bd b5 58 4d bf bd fb 02 bf e1 27 d9 bf
       -0.09059622 -0.8021348 -0.5116537 -1.6965295
0000e0 d4 aa d3 be bf 5d 12 bf 89 e3 2f 3e be 86 c4 3f
       -0.4134127 -0.57174295 0.17176642 1.535362
0000f0 36 f1 af 3e f7 b3 9f 3d a7 f8 84 3f 28 f7 58 3f
       0.34363717 0.077979974 1.0388383 0.8475213
000100 79 d0 fa 3e 54 c0 0d 3f 1b 72 d7 3e bf 82 07 bd
       0.48987177 0.55371594 0.42079243 -0.033083674
000110 11 c5 51 be 76 b1 2a be 87 8a 99 bf b9 4a 9b bf
       -0.20485331 -0.16669258 -1.19954 -1.2132179
000120 ad 02 a0 3e 58 b8 c2 3e 3e f3 16 3f ed df c0 3f
       0.3125204 0.38031268 0.5896491 1.5068337
000130 8e 6c 36 3f 7f 02 bb be 08 34 58 3d 99 ab 8d bf
       0.7125939 -0.36525342 0.052783996 -1.1067992
000140 2e 61 a5 be 59 05 94 3f 44 18 08 bf 19 3c a9 3d
       -0.32300705 1.1564132 -0.53162026 0.08263416
000150 28 0d 98 be 50 b0 dc 3f 7c 14 c9 be 07 f7 35 3f
       -0.29697537 1.7241306 -0.3927344 0.7108006
000160 21 fc 90 be c1 d5 8f be 7e 65 3a 3d ba 5e 84 3f
       -0.2831736 -0.2809277 0.045506947 1.0341408
000170 77 95 44 3d f2 ee 2e 3d c2 4f a0 3f c2 49 c3 3f
       0.047994103 0.042708345 1.252434 1.5256884
000180 08 75 81 3e e7 da 48 be 9d cf ab bf c5 a4 90 bf
       0.252846 -0.19614755 -1.3422734 -1.1300284
000190 93 3c 69 3e 87 53 32 3f 94 89 4a bd 03 61 c9 bf
       0.22777013 0.696587 -0.04944761 -1.5732731
0001a0 f6 d0 0b bb 52 b8 d5 3e f9 26 2a bf 23 68 dd bf
       -0.0021334267 0.41742188 -0.6646572 -1.7297405
0001b0 49 49 11 be 46 21 64 be f9 9f 8c 3f d3 a3 2b 3f
       -0.14188112 -0.22278318 1.098632 0.6704685
0001c0 c1 34 2d 3e 57 79 ef 3d 81 06 ac bf 5b 61 86 bf
       0.16914655 0.116930656 -1.3439485 -1.049846
0001d0 75 57 82 3e f7 65 9f 3e bd df df be 8d c2 a6 bf
       0.2545735 0.3113248 -0.43725386 -1.3028122
0001e0 99 ff fb bd 5f b4 43 bf 57 1d be bf 24 8e ce bf
       -0.12304611 -0.764471 -1.4852704 -1.6137128
0001f0 52 69 d2 3e 26 50 41 be bf a5 a2 3e a9 23 23 3f
       0.41095978 -0.1887823 0.3176708 0.6372629
000200 a4 55 90 be 00 52 9c bf 9e f1 e9 3e fa de 4c be
       -0.2819034 -1.2212524 0.45692152 -0.20006934
000210 e8 a1 73 be 16 ad 6e 3c d0 84 59 bf 14 3f c2 bf
       -0.23792231 0.014567634 -0.8496828 -1.51755
000220 9a f5 98 be 20 e4 82 bf 7e 8a 6c 3f e4 8d d0 3f
       -0.2987488 -1.0225868 0.9239882 1.6293302
000230 42 27 48 be 6e cb 3d bf 90 f9 0c bf f6 a5 e4 bf
       -0.19546226 -0.74138534 -0.550683 -1.7863147
000240 3e dd 8e be 9e 34 f8 be d9 6e 89 3f 64 4e 74 3f
       -0.2790317 -0.48477644 1.0736953 0.95432115
000250 02 c0 ba be d6 3f 7a 3b fb f5 89 3e 81 4f f6 3f
       -0.36474615 0.0038185022 0.2694548 1.9243013
000260 99 96 64 be 51 c1 8c bf c4 75 21 3f 76 5f ae 3e
       -0.22323073 -1.0996495 0.6307032 0.34057206
000270 65 aa 34 3e 14 d4 6a bf fd 3b 8a bf 2c b8 93 bf
       0.17643125 -0.91729856 -1.0799557 -1.154058
000280 c9 ad 99 be 85 3d 58 3e de e9 2d bf d9 92 e1 be
       -0.300154 0.21117218 -0.6793498 -0.44057348
000290 63 58 aa be 19 25 64 bf 72 3c e9 3d 79 97 68 3e
       -0.3327056 -0.89119107 0.11388482 0.22714032
0002a0 0d 9d 8c 3e f1 c6 f0 bd c4 8e 83 bf cf e4 bd bf
       0.2746357 -0.11756695 -1.0277944 -1.4835452
0002b0 ac e3 0c bb 0b 2a 20 bf 1f b5 4e 3f ae 42 f3 3e
       -0.0021498008 -0.6256415 0.8074512 0.4751181
0002c0 63 af 1e bf d0 14 b0 be 10 99 40 be a5 83 f6 3f
       -0.6198637 -0.3439088 -0.18808389 1.9258925
0002d0 e2 94 4a 3d b9 21 8c bf c9 49 0c bf 2c 8e fd bf
       0.049458392 -1.0947791 -0.5480009 -1.9809012
0002e0 d8 7e 9f be 9e 97 35 bf d3 ee 53 3f 7d 21 f1 3e
       -0.31151462 -0.70934474 0.8278629 0.47095862
0002f0 6c 11 8e be 23 a1 4e bf f3 0b 69 3f 8f 03 7a be
       -0.27747667 -0.80714625 0.9103386 -0.2441542
000300 fc 94 05 3e 46 5f f1 3e 9c 6b a0 bc 08 04 64 3f
       0.13045114 0.47143 -0.019582562 0.8906865
000310 c4 bb 01 be 44 54 0c bf ff 1e a9 bf f8 ee b8 bf
       -0.12669283 -0.5481608 -1.3212584 -1.4447927
000320 ef 19 ad 3e e7 8c 6b be d6 da 58 3d ea ba ac bf
       0.33808848 -0.23002969 0.052943073 -1.3494542
000330 04 d6 93 bd 52 f0 44 bf 31 2c 17 bf 47 38 a5 3e
       -0.072185546 -0.769292 -0.59051806 0.322695
000340 de 23 c3 bd 90 6a c1 be 6b 86 9b bf e6 5b bb bf
       -0.095283255 -0.37776613 -1.2150396 -1.463742
000350 86 44 1d 3f a9 7f 99 3e 6b 03 2d 3f 4f ec bf bd
       0.61432683 0.2998021 0.6758334 -0.09371244
000360 bc 9b 9b be 8b 27 0c bf 18 c4 46 3f 20 49 b7 3f
       -0.30392253 -0.5474784 0.77642965 1.4319191
000370 0f d9 cf be 50 0d 07 3f b6 73 99 3f 0e 4c 15 3f
       -0.4059529 0.5275469 1.1988437 0.58319175
000380 a8 ba 90 3d 81 49 85 bf 14 07 f2 be 1c 44 be bf
       0.07066852 -1.0413057 -0.47271025 -1.4864535
000390 61 45 d2 3e 92 31 18 3f 44 f5 f4 3e 82 d2 b4 3f
       0.41068557 0.5945064 0.47843373 1.4126742
0003a0 af 0b 17 3d 15 62 14 3f 6a b9 35 3e 08 43 a0 3f
       0.036876377 0.5796216 0.17746511 1.2520456
0003b0 4b 08 ad be c3 6a 48 bf cb fa 1d bd b6 17 c6 bf
       -0.3379539 -0.78287905 -0.038569253 -1.5475986
0003c0 b1 28 e5 bd 37 b7 d4 bd 58 b3 c3 3f 77 b5 aa 3f
       -0.11189402 -0.10386508 1.5289106 1.3336629
0003d0 7f 1a a7 3e b2 ef a5 3f 7b 66 24 3f 6d f5 7d 3f
       0.32637402 1.2963774 0.6421887 0.99202615
0003e0 05 64 d6 bd c8 b1 4d 3f 7c 8b b0 3e 15 13 e0 3f
       -0.10468296 0.803494 0.34481418 1.7505823
0003f0 bf d1 2b bb 61 08 1d be 4d b7 36 3f 82 16 c3 3d
       -0.0026217548 -0.15335228 0.71373445 0.095257774

policy.stem.0.bias f4 [64]
000000 9d a9 06 3b 79 1a 31 be 00 93 12 3c d8 56 ac 3c
       0.0020547875 -0.17295255 0.00894618 0.021037504
000010 19 c2 f7 bc 86 36 1e 3d c2 e4 f0 bb 07 be 86 3c
       -0.03024392 0.038626216 -0.007351489 0.016448034
000020 0a 1b 84 3d 67 ff 81 bb a6 71 2e 3d 46 27 9c bd
       0.0645047 -0.003967214 0.042588852 -0.07624678
000030 9f e3 33 3e 11 40 30 3d c7 09 d5 3d 80 b7 97 3d
       0.175673 0.04302985 0.104022555 0.07408047
000040 40 f8 90 bd 17 56 cd bc 18 ab 8b bd 94 fa d1 bb
       -0.070786 -0.025065465 -0.06819743 -0.006408045
000050 a8 8c e6 3c eb bf 48 3d 8e b3 f9 bc 07 d0 6b bc
       0.028143242 0.049011152 -0.030481126 -0.014392859
000060 a1 cb 95 3d ca e5 2d 3d 10 c2 d5 ba 9d 5c c5 3d
       0.0731423 0.042455472 -0.0016308445 0.09636805
000070 d6 ea 94 3c 88 8f 3d 3d 4b 33 8f 3c 26 49 cc 3c
       0.018178385 0.04627946 0.017480513 0.024937224
000080 e2 9d 0e 3d a6 fd b1 3d a6 ab 85 3d 84 71 83 3d
       0.034818538 0.08690958 0.0652688 0.06418136
000090 70 de ff 3c d0 d9 56 3d 2e dc 7a bd a8 4a fd 3c
       0.031233996 0.052453816 -0.061245136 0.030919388
0000a0 3e f3 25 bc 1c 5e f1 3d 8c ce 32 bd b5 d1 16 3d
       -0.010128794 0.11785528 -0.04365401 0.036821086
0000b0 87 5a 12 3e 50 89 58 bc 21 81 1f 3c 44 6f 67 bd
       0.14292346 -0.013216332 0.009735377 -0.056502596
0000c0 de ac 18 be 9a 38 b1 3c 77 c3 7f 3d 28 7a fa 3d
       -0.14909694 0.021633435 0.06244227 0.12230331
0000d0 cd 60 2b bd ae 3d 78 3d 46 55 25 3d 09 94 af bd
       -0.041840363 0.060605697 0.040364526 -0.08573157
0000e0 8b 5b c3 bb 8d b6 61 be 8c ec 90 3d 29 84 19 bd
       -0.0059618405 -0.22042294 0.07076368 -0.037479553
0000f0 5a 3e 63 bd 78 e0 2c be a0 99 33 bd 1c 1a 2f be
       -0.055479385 -0.16882503 -0.04384768 -0.17099804

policy.stem.2.weight f4 [64, 64]
000000 ae ff 51 3e 19 52 74 3e 02 67 a2 bc 56 74 1a be
       0.2050769 0.23859443 -0.019824509 -0.15083441
000010 5b 37 ad be fd b5 96 bd 07 0b bb 3d 80 e4 ae bd
       -0.33831295 -0.0735893 0.09132963 -0.08539677
000020 40 ac 99 be 95 2a 4e be 1a 88 e9 3e 70 4c 97 3d
       -0.3001423 -0.20133431 0.4561165 0.07387626
000030 46 50 ef bd 36 51 b3 be a6 95 75 be 43 21 ea be
       -0.11685233 -0.35022897 -0.23982868 -0.45728502
000040 e3 7a d3 be 76 e5 07 3f 8b 8a bc be 50 f3 cc bc
       -0.41304693 0.53084505 -0.3682445 -0.025018364
000050 cf 88 82 3e 2f 32 13 3f fa bf 2f bd 83 9d c2 be
       0.25495002 0.5749845 -0.042907692 -0.38010797
000060 a5 bc 70 3e 76 1d 3d 3e ca 2f 43 3f 2d 19 92 be
       0.23509462 0.1846827 0.76244795 -0.28534833
000070 ef 48 50 3f 42 3b 92 3e 07 e2 85 3f 3a e3 17 bf
       0.8136129 0.28560835 1.0459603 -0.59331095
000080 b9 34 1c 3d ed a2 36 be be d2 20 bf c0 10 ab 3e
       0.038136218 -0.17835589 -0.6282157 0.33411217
000090 01 b6 a3 bd 64 f3 80 be ed 71 19 bf 51 3f c4 be
       -0.07993699 -0.25185692 -0.5993946 -0.38329557
0000a0 71 4d fc 3d 7d 92 45 bf ca d0 ab 3e cd 33 45 bf
       0.12319458 -0.7717665 0.3355773 -0.77032167
0000b0 93 2d cc 3d 1e 10 c9 be ed c2 f6 3d 4b 86 e4 be
       0.0996963 -0.3927011 0.12048898 -0.44633707
0000c0 87 a3 5f be 1e 7d 5c 3e 53 25 04 be 2f 62 83 3c
       -0.21839724 0.21532103 -0.12904863 0.016038029
0000d0 cf 85 04 3e 9b d0 8a be 2b 9d f3 be 91 99 22 bf
       0.12941669 -0.27112278 -0.47580847 -0.63515574
0000e0 9b ae df be cc 8e 91 bc 8d 84 3b 3e de 65 ab be
       -0.436879 -0.017768286 0.18312283 -0.33476156
0000f0 a1 71 98 bf da 70 0b 3e 6c 4f 94 be dc 43 3f be
       -1.1909677 0.13617268 -0.28966844 -0.1867823
000100 ec c0 d1 3c 8f 46 15 bd 0a 92 2e be 8c d0 81 be
       0.025604688 -0.036444243 -0.17047897 -0.2535442
000110 ac af ab 3e 55 ca 83 3f c0 c5 19 3f e1 86 bf bd
       0.33532465 1.0296122 0.6006737 -0.09351898
000120 ea f0 57 3f 5d 17 0f 3f dd 13 eb 3e e3 65 a6 3e
       0.8435198 0.55895025 0.45913592 0.32499608
000130 fc b1 93 3d 11 7d 5c bf 4e c5 b4 3d c5 4d a8 3e
       0.07211682 -0.86128336 0.088266954 0.32871833
000140 88 cf 10 3f 9d 0b 28 3d e1 eb 2a bd 09 aa 84 be
       0.5656667 0.0410267 -0.041728858 -0.25910977
000150 2d 61 94 be 92 0f 9a 3e fc cd ab be c8 0e 38 3e
       -0.2898039 0.30090004 -0.3355559 0.17974389
000160 ae 9a 02 be 93 c0 0c bf 96 af 85 3c c2 6c 02 3e
       -0.12754318 -0.54981345 0.016319077 0.127368
000170 5e a7 b6 3e 5c 3e 38 bf b8 70 04 be d5 dd 0b 3f
       0.35674566 -0.7197015 -0.12933624 0.54635364
000180 72 07 3e bf c7 40 09 bd d6 4a c5 3e 32 c2 20 bf
       -0.7423011 -0.033509042 0.38533658 -0.6279632
000190 25 da fd be 9f 8c 91 bc 4b ab 44 bf 6f 43 7a 3d
       -0.49580494 -0.017767249 -0.7682387 0.061099466
0001a0 e4 5d a4 bd 96 94 1a be 44 e7 ee bd 1c 71 0d 3e
       -0.08025721 -0.15095744 -0.11665204 0.13812679
0001b0 62 29 d3 3e 1d 95 79 bf 68 69 b6 be f6 33 2c be
       0.4124251 -0.97493154 -0.35627294 -0.16816697
0001c0 18 75 cf 3e 43 e1 28 bd a1 2a b4 be 5e 42 89 3e
       0.40519023 -0.04123045 -0.35188773 0.26808447
0001d0 b5 43 43 be ab 70 9d 3e c8 43 44 3e f4 d6 de be
       -0.19068797 0.3075002 0.19166481 -0.4352337
0001e0 41 67 12 bf 1d fc c2 3e cc 12 08 3f 1c 91 8a bf
       -0.571888 0.38082972 0.5315368 -1.0825534
0001f0 8a 1f 36 3e 5a d3 18 3e d4 5e a5 3e 43 39 e3 be
       0.17785469 0.14924374 0.3229891 -0.44379625
000200 fc 5c 8b 3e 7f 6f 51 be f4 9e 0e be b7 8f de 3e
       0.2721938 -0.20452689 -0.13927823 0.4346902
000210 65 21 cf be 2f c2 64 be 68 47 77 be de c2 e1 3e
       -0.40455166 -0.223397 -0.24148333 0.44093984
000220 f7 12 49 3b f4 2b 0b 3f 89 25 71 be e7 2d 88 3e
       0.003068147 0.5436394 -0.23549475 0.2659752
000230 e9 34 21 3c ac 87 07 3e 63 c8 44 3e 5e 33 63 3d
       0.009839275 0.13235348 0.19217066 0.05546891
000240 28 54 1e 3e 0c 87 8e bf 01 74 c1 3e dc a2 97 3c
       0.1546179 -1.1134963 0.37783816 0.018510275
000250 89 24 ba 3d ff 7b 77 bf 48 fb 9b 3e b6 49 2e bf
       0.09089 -0.9667358 0.3046515 -0.68081224
000260 4f 8f 0c 3f 82 2d 8f 3e c3 3b 0c bf 18 5a 2b bd
       0.5490617 0.27964407 -0.5477869 -0.041833967
000270 ae bf 26 3f ae 8f 5b 3e c4 28 6b 3f c5 1a a5 3d
       0.6513623 0.21441528 0.9185908 0.080617465
000280 dd 0a 05 3e 05 b0 db 3e 20 7e 5f 3e d3 5e e7 be
       0.12992425 0.4290773 0.21825457 -0.45189533
000290 36 7f bc 3e 43 41 3d 3e 18 73 fb be ff f4 36 3f
       0.36815804 0.18481927 -0.49111247 0.71467584
0002a0 fd 17 52 3e 85 cf 99 3e 08 a6 29 bf 6f d2 24 be
       0.20516963 0.30041137 -0.6626897 -0.16095899
0002b0 01 de 78 3e 6b c4 17 3f b4 b2 1e 3e 93 02 70 3e
       0.24303438 0.59284085 0.15497857 0.23438482
0002c0 c1 10 a9 3d 4e b3 52 3d c9 ae 0c 3f b8 fb 9d 3e
       0.08255149 0.05144053 0.549542 0.3085611
0002d0 0c f6 06 3e 62 cb 16 bf 6b f2 2e 3e 32 23 77 bf
       0.13179797 -0.5890409 0.17084663 -0.9653808
0002e0 c7 e7 dc 3e c7 07 e3 3b c4 82 28 3e c7 0a 76 3d
       0.43145582 0.0069284174 0.16456133 0.06006887
0002f0 a0 1d af bf e8 ce 32 bf 66 0d aa 3d 47 85 b6 be
       -1.3680916 -0.69846964 0.08303337 -0.35648558
000300 7f ad 9f be bb ac 14 bd 89 71 95 bd 48 0f 9b bd
       -0.31187055 -0.03629754 -0.07297046 -0.07571274
000310 4a 15 f3 bd 48 ad c3 bc a0 a8 2a 3e 81 a9 a5 be
       -0.11869295 -0.023886338 0.16665888 -0.32355884
000320 d7 fe 2e bf 52 31 3e bf 2f 78 15 be 33 8d 21 3d
       -0.68357605 -0.74294007 -0.14596628 0.0394413
000330 f3 f9 28 be a5 14 16 be b2 92 61 3e 43 c3 3d bf
       -0.16501598 -0.14656313 0.22028616 -0.7412607
000340 32 bf 2c bd 68 9c 01 3f fa e2 c8 bd 96 48 ce be
       -0.042174526 0.5062928 -0.09808917 -0.40289754
000350 fe 6e c2 3c 26 4a 05 3f 80 2f 04 bc 6f 2f a1 be
       0.023734566 0.52066267 -0.0080679655 -0.314815
000360 be 1a b0 3e 42 cb 23 3f 7b 8b 3e 3f 5d 8a 16 be
       0.34395403 0.6398202 0.7443158 -0.14701219
000370 3e cf bf be 56 25 38 3e 1d fe 01 3f a4 cc 8a be
       -0.374628 0.17982993 0.5077837 -0.27109253
000380 fb 7b 61 be 4a ac 30 bd f5 ab 19 3b f3 d2 59 3e
       -0.22019951 -0.043133058 0.0023448442 0.21271877
000390 f3 eb 20 3e 22 1c b5 bd ba 53 c0 be ef fd f6 3d
       0.15715007 -0.088432565 -0.37563878 0.12060153
0003a0 bf 42 9b 3e 2c cd 1c 3d d9 70 bb 3d 3f 12 c4 be
       0.3032436 0.038281605 0.09152383 -0.3829517
0003b0 f0 63 60 be 96 1a 1c 3e a4 6c 75 3e a7 8c c1 bd
       -0.21913123 0.15244517 0.23967224 -0.094506554
0003c0 cb f2 c9 be a0 4d 39 3f f7 83 a5 3e d9 fb 67 3e
       -0.3944305 0.7238407 0.32327244 0.22654666
0003d0 7d 5d 4a 3b 24 9c b2 be 3c e5 98 bd 6f 01 aa 3d
       0.0030878477 -0.3488475 -0.07465598 0.08301055
0003e0 6c dc 0f bf 46 9d ba bd a4 22 57 bd c5 a9 49 be
       -0.5619571 -0.09112029 -0.05252327 -0.19693668
0003f0 33 60 f5 be 2a ac 9b be 39 41 c2 be 42 c9 8b 3e
       -0.47924957 -0.30404788 -0.37940386 0.27301985

policy.stem.2.bias f4 [64]
000000 0c 73 41 3e fb b5 85 3e 3c d6 bf 3e eb 1f d7 be
       0.18891543 0.26115403 0.37468135 -0.4201654
000010 75 11 cc 3c 88 0e d5 3c 9e 12 13 bf ce d2 c3 bd
       0.024910668 0.026007906 -0.5745028 -0.09561692
000020 e8 ff 0b 3f 26 e2 5d 3e 53 0c 1a be 0a ff 7a be
       0.54687357 0.216683 -0.15043764 -0.24511352
000030 5e dd 5e bd d3 fc 30 3e 85 65 9a 3e 32 23 21 3c
       -0.05441033 0.17283945 0.30155578 0.009835051
000040 87 87 92 be 13 5d af be 68 de aa 3d 1c dd 49 3d
       -0.28619024 -0.34250697 0.08343202 0.049283132
000050 46 c2 cd 3d 68 d3 f9 b7 f0 4a d6 bd 91 e9 34 3f
       0.1004682 -2.9781557e-05 -0.10463512 0.70668894
000060 8c 3c 50 3e cb 4f b5 3f 06 d3 17 be 2a 70 8d 3e
       0.20335597 1.4164976 -0.14826593 0.27624637
000070 55 3d 21 bf 1f a2 73 3d 3f 1b 4c be b1 35 de bd
       -0.6298421 0.059480783 -0.19932269 -0.108500846
000080 aa c7 0b 3f 88 3e 69 bd f5 13 13 be d4 25 00 3f
       0.5460154 -0.0569444 -0.14363082 0.5005772
000090 92 56 53 be 58 82 ba be d7 c9 08 be f3 33 a8 bc
       -0.20638493 -0.3642757 -0.13358246 -0.020532584
0000a0 9a e6 b8 be 40 6c dc bd c0 86 7d be 4f 4a fc bd
       -0.36113435 -0.107628345 -0.24758434 -0.12318861
0000b0 73 f7 73 be d9 52 b7 3d 89 ed 08 bf 4d 7a 56 be
       -0.23824863 0.08951349 -0.5348745 -0.20945092
0000c0 8d 4b 59 bf 91 6b 9f bd 5c 1f 8f 3e b9 20 64 be
       -0.84880906 -0.077841885 0.27953613 -0.22278108
0000d0 52 80 2e bf 85 f6 ca bc f5 2c 37 3e 8f b1 19 3e
       -0.6816455 -0.024775753 0.17888243 0.1500914
0000e0 9b 52 ac be 3a 45 5f be 19 a9 75 be 4d 3a 9a 3d
       -0.33656773 -0.21803752 -0.23990287 0.07530651
0000f0 72 b0 27 be 4c 63 b3 be 69 70 05 bf e9 6f b4 3e
       -0.16375902 -0.35036695 -0.5212465 0.3524163

policy.stem.4.weight f4 [64, 64]
000000 ae ff 51 3e 19 52 74 3e 02 67 a2 bc 56 74 1a be
       0.2050769 0.23859443 -0.019824509 -0.15083441
000010 5b 37 ad be fd b5 96 bd 07 0b bb 3d 80 e4 ae bd
       -0.33831295 -0.0735893 0.09132963 -0.08539677
000020 40 ac 99 be 95 2a 4e be 1a 88 e9 3e 70 4c 97 3d
       -0.3001423 -0.20133431 0.4561165 0.07387626
000030 46 50 ef bd 36 51 b3 be a6 95 75 be 43 21 ea be
       -0.11685233 -0.35022897 -0.23982868 -0.45728502
000040 e3 7a d3 be 76 e5 07 3f 8b 8a bc be 50 f3 cc bc
       -0.41304693 0.53084505 -0.3682445 -0.025018364
000050 cf 88 82 3e 2f 32 13 3f fa bf 2f bd 83 9d c2 be
       0.25495002 0.5749845 -0.042907692 -0.38010797
000060 a5 bc 70 3e 76 1d 3d 3e ca 2f 43 3f 2d 19 92 be
       0.23509462 0.1846827 0.76244795 -0.28534833
000070 ef 48 50 3f 42 3b 92 3e 07 e2 85 3f 3a e3 17 bf
       0.8136129 0.28560835 1.0459603 -0.59331095
000080 b9 34 1c 3d ed a2 36 be be d2 20 bf c0 10 ab 3e
       0.038136218 -0.17835589 -0.6282157 0.33411217
000090 01 b6 a3 bd 64 f3 80 be ed 71 19 bf 51 3f c4 be
       -0.07993699 -0.25185692 -0.5993946 -0.38329557
0000a0 71 4d fc 3d 7d 92 45 bf ca d0 ab 3e cd 33 45 bf
       0.12319458 -0.7717665 0.3355773 -0.77032167
0000b0 93 2d cc 3d 1e 10 c9 be ed c2 f6 3d 4b 86 e4 be
       0.0996963 -0.3927011 0.12048898 -0.44633707
0000c0 87 a3 5f be 1e 7d 5c 3e 53 25 04 be 2f 62 83 3c
       -0.21839724 0.21532103 -0.12904863 0.016038029
0000d0 cf 85 04 3e 9b d0 8a be 2b 9d f3 be 91 99 22 bf
       0.12941669 -0.27112278 -0.47580847 -0.63515574
0000e0 9b ae df be cc 8e 91 bc 8d 84 3b 3e de 65 ab be
       -0.436879 -0.017768286 0.18312283 -0.33476156
0000f0 a1 71 98 bf da 70 0b 3e 6c 4f 94 be dc 43 3f be
       -1.1909677 0.13617268 -0.28966844 -0.1867823
000100 ec c0 d1 3c 8f 46 15 bd 0a 92 2e be 8c d0 81 be
       0.025604688 -0.036444243 -0.17047897 -0.2535442
000110 ac af ab 3e 55 ca 83 3f c0 c5 19 3f e1 86 bf bd
       0.33532465 1.0296122 0.6006737 -0.09351898
000120 ea f0 57 3f 5d 17 0f 3f dd 13 eb 3e e3 65 a6 3e
       0.8435198 0.55895025 0.45913592 0.32499608
000130 fc b1 93 3d 11 7d 5c bf 4e c5 b4 3d c5 4d a8 3e
       0.07211682 -0.86128336 0.088266954 0.32871833
000140 88 cf 10 3f 9d 0b 28 3d e1 eb 2a bd 09 aa 84 be
       0.5656667 0.0410267 -0.041728858 -0.25910977
000150 2d 61 94 be 92 0f 9a 3e fc cd ab be c8 0e 38 3e
       -0.2898039 0.30090004 -0.3355559 0.17974389
000160 ae 9a 02 be 93 c0 0c bf 96 af 85 3c c2 6c 02 3e
       -0.12754318 -0.54981345 0.016319077 0.127368
000170 5e a7 b6 3e 5c 3e 38 bf b8 70 04 be d5 dd 0b 3f
       0.35674566 -0.7197015 -0.12933624 0.54635364
000180 72 07 3e bf c7 40 09 bd d6 4a c5 3e 32 c2 20 bf
       -0.7423011 -0.033509042 0.38533658 -0.6279632
000190 25 da fd be 9f 8c 91 bc 4b ab 44 bf 6f 43 7a 3d
       -0.49580494 -0.017767249 -0.7682387 0.061099466
0001a0 e4 5d a4 bd 96 94 1a be 44 e7 ee bd 1c 71 0d 3e
       -0.08025721 -0.15095744 -0.11665204 0.13812679
0001b0 62 29 d3 3e 1d 95 79 bf 68 69 b6 be f6 33 2c be
       0.4124251 -0.97493154 -0.35627294 -0.16816697
0001c0 18 75 cf 3e 43 e1 28 bd a1 2a b4 be 5e 42 89 3e
       0.40519023 -0.04123045 -0.35188773 0.26808447
0001d0 b5 43 43 be ab 70 9d 3e c8 43 44 3e f4 d6 de be
       -0.19068797 0.3075002 0.19166481 -0.4352337
0001e0 41 67 12 bf 1d fc c2 3e cc 12 08 3f 1c 91 8a bf
       -0.571888 0.38082972 0.5315368 -1.0825534
0001f0 8a 1f 36 3e 5a d3 18 3e d4 5e a5 3e 43 39 e3 be
       0.17785469 0.14924374 0.3229891 -0.44379625
000200 fc 5c 8b 3e 7f 6f 51 be f4 9e 0e be b7 8f de 3e
       0.2721938 -0.20452689 -0.13927823 0.4346902
000210 65 21 cf be 2f c2 64 be 68 47 77 be de c2 e1 3e
       -0.40455166 -0.223397 -0.24148333 0.44093984
000220 f7 12 49 3b f4 2b 0b 3f 89 25 71 be e7 2d 88 3e
       0.003068147 0.5436394 -0.23549475 0.2659752
000230 e9 34 21 3c ac 87 07 3e 63 c8 44 3e 5e 33 63 3d
       0.009839275 0.13235348 0.19217066 0.05546891
000240 28 54 1e 3e 0c 87 8e bf 01 74 c1 3e dc a2 97 3c
       0.1546179 -1.1134963 0.37783816 0.018510275
000250 89 24 ba 3d ff 7b 77 bf 48 fb 9b 3e b6 49 2e bf
       0.09089 -0.9667358 0.3046515 -0.68081224
000260 4f 8f 0c 3f 82 2d 8f 3e c3 3b 0c bf 18 5a 2b bd
       0.5490617 0.27964407 -0.5477869 -0.041833967
000270 ae bf 26 3f ae 8f 5b 3e c4 28 6b 3f c5 1a a5 3d
       0.6513623 0.21441528 0.9185908 0.080617465
000280 dd 0a 05 3e 05 b0 db 3e 20 7e 5f 3e d3 5e e7 be
       0.12992425 0.4290773 0.21825457 -0.45189533
000290 36 7f bc 3e 43 41 3d 3e 18 73 fb be ff f4 36 3f
       0.36815804 0.18481927 -0.49111247 0.71467584
0002a0 fd 17 52 3e 85 cf 99 3e 08 a6 29 bf 6f d2 24 be
       0.20516963 0.30041137 -0.6626897 -0.16095899
0002b0 01 de 78 3e 6b c4 17 3f b4 b2 1e 3e 93 02 70 3e
       0.24303438 0.59284085 0.15497857 0.23438482
0002c0 c1 10 a9 3d 4e b3 52 3d c9 ae 0c 3f b8 fb 9d 3e
       0.08255149 0.05144053 0.549542 0.3085611
0002d0 0c f6 06 3e 62 cb 16 bf 6b f2 2e 3e 32 23 77 bf
       0.13179797 -0.5890409 0.17084663 -0.9653808
0002e0 c7 e7 dc 3e c7 07 e3 3b c4 82 28 3e c7 0a 76 3d
       0.43145582 0.0069284174 0.16456133 0.06006887
0002f0 a0 1d af bf e8 ce 32 bf 66 0d aa 3d 47 85 b6 be
       -1.3680916 -0.69846964 0.08303337 -0.35648558
000300 7f ad 9f be bb ac 14 bd 89 71 95 bd 48 0f 9b bd
       -0.31187055 -0.03629754 -0.07297046 -0.07571274
000310 4a 15 f3 bd 48 ad c3 bc a0 a8 2a 3e 81 a9 a5 be
       -0.11869295 -0.023886338 0.16665888 -0.32355884
000320 d7 fe 2e bf 52 31 3e bf 2f 78 15 be 33 8d 21 3d
       -0.68357605 -0.74294007 -0.14596628 0.0394413
000330 f3 f9 28 be a5 14 16 be b2 92 61 3e 43 c3 3d bf
       -0.16501598 -0.14656313 0.22028616 -0.7412607
000340 32 bf 2c bd 68 9c 01 3f fa e2 c8 bd 96 48 ce be
       -0.042174526 0.5062928 -0.09808917 -0.40289754
000350 fe 6e c2 3c 26 4a 05 3f 80 2f 04 bc 6f 2f a1 be
       0.023734566 0.52066267 -0.0080679655 -0.314815
000360 be 1a b0 3e 42 cb 23 3f 7b 8b 3e 3f 5d 8a 16 be
       0.34395403 0.6398202 0.7443158 -0.14701219
000370 3e cf bf be 56 25 38 3e 1d fe 01 3f a4 cc 8a be
       -0.374628 0.17982993 0.5077837 -0.27109253
000380 fb 7b 61 be 4a ac 30 bd f5 ab 19 3b f3 d2 59 3e
       -0.22019951 -0.043133058 0.0023448442 0.21271877
000390 f3 eb 20 3e 22 1c b5 bd ba 53 c0 be ef fd f6 3d
       0.15715007 -0.088432565 -0.37563878 0.12060153
0003a0 bf 42 9b 3e 2c cd 1c 3d d9 70 bb 3d 3f 12 c4 be
       0.3032436 0.038281605 0.09152383 -0.3829517
0003b0 f0 63 60 be 96 1a 1c 3e a4 6c 75 3e a7 8c c1 bd
       -0.21913123 0.15244517 0.23967224 -0.094506554
0003c0 cb f2 c9 be a0 4d 39 3f f7 83 a5 3e d9 fb 67 3e
       -0.3944305 0.7238407 0.32327244 0.22654666
0003d0 7d 5d 4a 3b 24 9c b2 be 3c e5 98 bd 6f 01 aa 3d
       0.0030878477 -0.3488475 -0.07465598 0.08301055
0003e0 6c dc 0f bf 46 9d ba bd a4 22 57 bd c5 a9 49 be
       -0.5619571 -0.09112029 -0.05252327 -0.19693668
0003f0 33 60 f5 be 2a ac 9b be 39 41 c2 be 42 c9 8b 3e
       -0.47924957 -0.30404788 -0.37940386 0.27301985

policy.stem.4.bias f4 [64]
000000 0c 73 41 3e fb b5 85 3e 3c d6 bf 3e eb 1f d7 be
       0.18891543 0.26115403 0.37468135 -0.4201654
000010 75 11 cc 3c 88 0e d5 3c 9e 12 13 bf ce d2 c3 bd
       0.024910668 0.026007906 -0.5745028 -0.09561692
000020 e8 ff 0b 3f 26 e2 5d 3e 53 0c 1a be 0a ff 7a be
       0.54687357 0.216683 -0.15043764 -0.24511352
000030 5e dd 5e bd d3 fc 30 3e 85 65 9a 3e 32 23 21 3c
       -0.05441033 0.17283945 0.30155578 0.009835051
000040 87 87 92 be 13 5d af be 68 de aa 3d 1c dd 49 3d
       -0.28619024 -0.34250697 0.08343202 0.049283132
000050 46 c2 cd 3d 68 d3 f9 b7 f0 4a d6 bd 91 e9 34 3f
       0.1004682 -2.9781557e-05 -0.10463512 0.70668894
000060 8c 3c 50 3e cb 4f b5 3f 06 d3 17 be 2a 70 8d 3e
       0.20335597 1.4164976 -0.14826593 0.27624637
000070 55 3d 21 bf 1f a2 73 3d 3f 1b 4c be b1 35 de bd
       -0.6298421 0.059480783 -0.19932269 -0.108500846
000080 aa c7 0b 3f 88 3e 69 bd f5 13 13 be d4 25 00 3f
       0.5460154 -0.0569444 -0.14363082 0.5005772
000090 92 56 53 be 58 82 ba be d7 c9 08 be f3 33 a8 bc
       -0.20638493 -0.3642757 -0.13358246 -0.020532584
0000a0 9a e6 b8 be 40 6c dc bd c0 86 7d be 4f 4a fc bd
       -0.36113435 -0.107628345 -0.24758434 -0.12318861
0000b0 73 f7 73 be d9 52 b7 3d 89 ed 08 bf 4d 7a 56 be
       -0.23824863 0.08951349 -0.5348745 -0.20945092
0000c0 8d 4b 59 bf 91 6b 9f bd 5c 1f 8f 3e b9 20 64 be
       -0.84880906 -0.077841885 0.27953613 -0.22278108
0000d0 52 80 2e bf 85 f6 ca bc f5 2c 37 3e 8f b1 19 3e
       -0.6816455 -0.024775753 0.17888243 0.1500914
0000e0 9b 52 ac be 3a 45 5f be 19 a9 75 be 4d 3a 9a 3d
       -0.33656773 -0.21803752 -0.23990287 0.07530651
0000f0 72 b0 27 be 4c 63 b3 be 69 70 05 bf e9 6f b4 3e
       -0.16375902 -0.35036695 -0.5212465 0.3524163

policy.stem.6.weight f4 [2, 64]
000000 5d de ef bd 08 b3 a1 bc 2b f3 08 3e 51 6b a6 3d
       -0.11712334 -0.019738689 0.13374011 0.08125938
000010 63 b0 86 be 4a 22 7d 3e 24 12 62 3e fd f2 49 3f
       -0.26306447 0.24720111 0.22077233 0.78886396
000020 65 14 c8 bd 74 67 5d 3e 1e 6d 3d bb 9c 46 df 3d
       -0.09769515 0.21621495 -0.002890415 0.109021395
000030 9b 1f 0b be 73 9f 1d 3f ee 85 a6 3e 36 3a 2c bd
       -0.13586275 0.61571425 0.32524055 -0.0420477
000040 48 01 6d be 68 23 d5 3d 44 23 05 3e ed 03 a8 3e
       -0.2314502 0.10407144 0.13001734 0.32815495
000050 01 eb b7 be 0c c5 a6 3e 54 4b 85 3e 6f 97 40 3f
       -0.3592148 0.3257221 0.26034033 0.7523107
000060 23 58 08 3e c8 15 06 3f df 40 ed bd 80 60 86 3e
       0.13314871 0.52376986 -0.11584639 0.262455
000070 b4 fc a5 3e 10 1d 77 be 52 cc bc be 83 9e aa 3e
       0.3241936 -0.2413218 -0.36874634 0.3332406
000080 36 65 ac bd 1a 31 9f 3e 4e ca 13 3f 5f ba 2e be
       -0.08417742 0.3109215 0.5773057 -0.17063282
000090 14 07 07 3e b7 48 45 3e 22 fa 49 3e 52 65 e0 3c
       0.13186294 0.1926602 0.19724324 0.027392063
0000a0 6f a5 8f bd 07 df 76 3e 28 ec 0b 3e 35 c7 c5 be
       -0.07013976 0.24108516 0.13664305 -0.38628545
0000b0 fb 02 1c 3f d1 4c 46 bd 89 48 9f 3e 1a 12 e4 bd
       0.6094205 -0.0484131 0.31110027 -0.11136265
0000c0 a5 9d 0b 3f 9f cf 8f be 91 d6 31 be 1a 1f a6 3e
       0.5453742 -0.2808809 -0.17367007 0.32445604
0000d0 04 50 f5 3d 4b 5e 2d bd 43 ec 95 be dc 8c 96 3e
       0.119781524 -0.042326253 -0.29281816 0.29404342
0000e0 fa 57 7c bd 9d 0c 4b be 94 c8 5d be d0 92 f3 3e
       -0.06160734 -0.1982903 -0.21658546 0.47572947
0000f0 e1 aa b6 be 74 cb da 3e de 72 2d 3f af 0e 51 3e
       -0.35677245 0.42733347 0.677534 0.20415758
000100 eb f8 7f be b6 f9 ff bd b9 eb 9e be 2b 46 2e 3e
       -0.24997298 -0.124988005 -0.31039217 0.17018954
000110 c6 76 d6 be 38 60 93 3e 1d 05 65 be 95 fe 45 bf
       -0.41887492 0.28784347 -0.22365232 -0.77341586
000120 6e 89 ad bc 9b 7c 1d 3f 02 34 6b 3e a5 1f a0 be
       -0.021183696 0.6151826 0.22969058 -0.31274143
000130 86 e2 40 3e 73 44 d9 be 8d b9 5f 3d 7e 97 bd bc
       0.18836412 -0.42435035 0.054620314 -0.023143526
000140 d2 69 47 be cf 9f e5 be de 2d f8 be 28 f3 f5 be
       -0.19473961 -0.44848487 -0.48472494 -0.48037076
000150 44 65 be be 47 ec 0c be 6c b0 60 3e e2 87 2a bf
       -0.37186635 -0.13762008 0.219423 -0.6661359
000160 06 cc 96 3e 6e 47 e3 be c5 02 aa be 9a ed 05 be
       0.29452533 -0.44390434 -0.33205238 -0.13078919
000170 35 3b 91 3e 2b 24 0a 3f c4 de 2a 3e 78 76 8f be
       0.28365484 0.5396144 0.16686541 -0.28020072
000180 c4 fa 22 3e 7e 70 b1 3e d4 65 76 bd 60 bf a1 3e
       0.15915972 0.34656137 -0.060155705 0.3159132
000190 1c 99 40 3e a7 22 dd bd ef e3 79 3e 0f 2b 93 be
       0.18808407 -0.10797625 0.24403356 -0.2874379
0001a0 fa a5 09 3d a1 88 29 3e 3d 81 6b be e3 1a d5 3e
       0.033605553 0.16556026 -0.22998519 0.41622075
0001b0 c7 58 ff be 21 3c 89 bd d2 24 e0 3d 3c d3 98 3e
       -0.4987242 -0.06700922 0.10944523 0.2984866
0001c0 fe 47 16 bf 07 be 8e be f7 0c 1d be 07 fa 21 be
       -0.587036 -0.27879354 -0.15336977 -0.15818034
0001d0 d4 9f 26 be 57 ad 37 bd fe ad 95 be 85 41 8d 3e
       -0.16271907 -0.044843044 -0.29234308 0.2758905
0001e0 40 e4 3b 3d 44 64 11 3e f8 6c 37 be 79 bf e5 3e
       0.045871973 0.14198405 -0.17912662 0.44872645
0001f0 9e 7f 0e bf a5 95 db 3e d6 53 4d 3d 31 e1 07 3f
       -0.5566348 0.42887607 0.05012878 0.5307799

policy.stem.6.bias f4 [2]
000000 7d e7 94 3d 7e e7 94 bd
       0.072707154 -0.07270716

value.stem.0.weight f4 [64, 4]
000000 1b 3d 6f bf 6e f6 8d bf 5b d5 00 be 98 7d 4f be
       -0.93452615 -1.1090829 -0.12581389 -0.20262754
000010 3e bd 8a bf f7 bf ab bf 5e 79 bf bf ea 8d e1 3f
       -1.0839002 -1.3417958 -1.4958913 1.7621434
000020 38 b7 ff 3c 84 76 a3 bf cc b1 1f 3f 23 66 c2 be
       0.031215295 -1.2770543 0.6238067 -0.3796855
000030 32 2b 02 c0 d0 85 96 3f 29 07 3f 3f cc 87 b1 bf
       -2.0338864 1.1759586 0.746203 -1.3869567
000040 4c 03 7c 3f 79 7b 04 c0 08 fa 86 3e e4 48 80 be
       0.9844253 -2.0700362 0.26362634 -0.2505561
000050 1f 9d 6e 3f c6 f6 6a 40 77 de a4 3e f4 e0 d3 3f
       0.932085 3.6713119 0.32200977 1.6553025
000060 14 ff 6b be 79 ef fb 3f 9c 5e 36 3f 06 94 20 3f
       -0.23046523 1.9682456 0.7123811 0.62725866
000070 dd 9f a8 3f cd b2 64 3e 35 b4 eb be da 9e a0 bd
       1.3173786 0.22333832 -0.46035925 -0.078427985
000080 ba 03 64 bf 9f 26 87 3f 93 ba 03 3f f2 fc 35 bf
       -0.89068186 1.0558661 0.51456565 -0.7108909
000090 52 4f d6 3e 80 fe 34 c0 08 4c ce 3e ab 65 14 c0
       0.41857392 -2.8280334 0.40292382 -2.3187053
0000a0 e8 41 91 bf 4e 85 ae 3f da d1 e0 bf 25 27 11 3f
       -1.1348238 1.3634431 -1.7564042 0.56700355
0000b0 46 f0 ae bf 9b 91 5d c0 84 96 0f 3f dc 29 be 3e
       -1.3667076 -3.462012 0.56089044 0.3714131
0000c0 83 c1 f6 3f ae 7f a2 bf 56 a6 09 3f e0 22 71 3e
       1.9277805 -1.2695215 0.53769433 0.2354846
0000d0 2f 82 d7 3e d2 82 03 40 5c 48 f4 3f ac fc dc be
       0.4209151 2.0548596 1.9084582 -0.43161523
0000e0 84 84 ed be 2e bc d2 3f d9 11 de bf e5 df 10 40
       -0.46390164 1.6463678 -1.7349197 2.2636654
0000f0 ab 88 5e 3f cd 81 93 bf b2 bb e1 3f 61 2f c9 3e
       0.8692729 -1.1523987 1.7635405 0.3929396
000100 84 20 c5 3f 33 91 c6 3f 7e db a6 be d6 08 02 be
       1.5400548 1.5513061 -0.32589334 -0.12698683
000110 3d 71 05 be 11 25 2f 3f 50 9e 9c be 7c 80 d7 be
       -0.13031478 0.68415934 -0.30589533 -0.42090213
000120 f7 95 ce 3e 0f 3d 31 40 b7 80 68 3f 69 87 41 3f
       0.4034879 2.7693517 0.90821403 0.75597245
000130 7d a6 fd be 08 79 4f c0 89 18 4d 3e cb fe 2c bd
       -0.49541083 -3.2417622 0.2002889 -0.042235177
000140 01 e4 1e bf 19 f0 56 c0 bc d8 cb 3e 4d f8 ff bf
       -0.62066656 -3.3584044 0.39813793 -1.999765
000150 db 37 45 3f 1b 2c 00 40 e2 c8 8a 3f 16 0c 9c bf
       0.77038354 2.002692 1.0842555 -1.2191188
000160 2b 9d 08 3f 61 cd 22 bf bd b5 c9 be cb c5 0a c0
       0.5336482 -0.63594633 -0.39396468 -2.1683223
000170 63 d7 7b be 13 84 59 be ac b1 88 3f 96 f8 1a 40
       -0.24593882 -0.21241789 1.0679221 2.4214225
000180 e2 67 af bf 2a d5 70 bf 04 a6 6d 40 05 09 0a c0
       -1.3703578 -0.9407526 3.7132578 -2.1568005
000190 aa 1d 9a be e4 10 47 bf d9 a9 92 3f da f7 16 40
       -0.30100757 -0.7776015 1.1458083 2.3588777
0001a0 4d 9b 32 3d 7b fe 7d 3f 9e f6 6c 3f 46 b9 6b 40
       0.043605138 0.9921643 0.9256381 3.6831832
0001b0 d1 96 2e bf 0b 36 81 bf 45 80 13 3f 7d 4c 56 bf
       -0.6819888 -1.0094618 0.576176 -0.8371046
0001c0 a8 ea 77 3f 59 8e 40 c0 5e 7a 5c 40 42 d2 da be
       0.9684243 -3.0086882 3.4449687 -0.4273854
0001d0 8a 02 97 bf 7b 9d 3c c0 04 c8 22 be 55 54 5f be
       -1.179765 -2.9471118 -0.15896612 -0.21809514
0001e0 99 02 33 3f e4 0b 79 bd 99 d7 23 c0 a7 86 2f 40
       0.6992584 -0.060802355 -2.560034 2.7425935
0001f0 a6 2b 96 3f d3 ad 34 3f 18 9d 7e 3e 76 bb 2b 3e
       1.173207 0.70577735 0.24864614 0.1677073
000200 3e 8d e6 be 91 15 f6 3f aa 83 41 c0 6a a8 00 3f
       -0.45029634 1.9225332 -3.0236611 0.5025698
000210 75 e9 13 bf ed f9 a6 bf ee 1b 3e bf 0c 21 f1 bf
       -0.577781 -1.3045021 -0.7426137 -1.883821
000220 5d 6a b3 bf 75 c8 17 be f1 0a 0e bf f6 50 34 3e
       -1.4016834 -0.14822562 -0.55485445 0.17609009
000230 3a dc 15 bf d8 cb d5 3f 91 aa 7c 3e 0c 10 fd 3f
       -0.58539164 1.6702833 0.24674441 1.9770522
000240 62 33 a0 bf 00 0c a4 3e b6 fb 14 bf b5 98 e1 3d
       -1.2515681 0.32040405 -0.5819658 0.11015455
000250 b6 9a bf 3e da d1 e0 bd 68 4f 40 3f 97 4b fa 3f
       0.37422723 -0.10977526 0.75121164 1.9554318
000260 5a 45 86 be 88 8f 70 40 79 5b 19 bf 2c d1 14 3f
       -0.26224786 3.7587605 -0.599052 0.5813167
000270 e0 92 8c bf 0d 8b 43 c0 85 02 e2 3e 28 fb ba be
       -1.0982323 -3.055362 0.44142547 -0.36519742
000280 6b 73 d5 3e 3d 3b af bf d0 a5 b5 3f 4e 99 b3 bf
       0.4168962 -1.3689953 1.4191227 -1.403116
000290 25 da 3b 3f 7f bd 89 3f 13 ee 14 3e 87 be c3 3e
       0.7337974 1.0760955 0.14543943 0.38231298
0002a0 22 03 d0 3f d2 3b 93 bf 6f 64 26 bd a3 43 11 c0
       1.6250956 -1.1502631 -0.040623125 -2.2697532
0002b0 3b 2b 9b bf 37 98 60 3f f5 3d 79 3f 10 00 48 40
       -1.2122568 0.8773226 0.97360164 3.1250038
0002c0 ea e9 0b bf 96 ef 78 3f 96 d9 a4 bf 53 66 4f c0
       -0.546538 0.9724058 -1.2878902 -3.2406204
0002d0 60 70 98 3f 92 31 c5 bf 34 30 42 3f 8d 42 e1 be
       1.1909294 -1.5405753 0.758548 -0.43996087
0002e0 16 dd 34 bf ea 70 ea bc a4 f7 58 bf ff f6 1b 3e
       -0.7064985 -0.028618295 -0.8475287 0.1523094
0002f0 4b d9 97 3e 83 1e a6 be 80 59 28 3e 4a e4 5f be
       0.2965797 -0.32445154 0.16440392 -0.21864429
000300 e0 51 8a bf e2 65 76 40 e8 43 04 c0 13 49 0a bf
       -1.0806236 3.8499684 -2.0666447 -0.5401775
000310 ef 53 94 3e bc bc 15 40 46 4b 37 40 6b a1 de 3f
       0.28970286 2.3396444 2.8639693 1.7393011
000320 36 66 7c 3e 85 ac 23 40 b8 84 81 40 d5 d0 f2 3f
       0.24648365 2.5574048 4.047451 1.896998
000330 17 93 69 3f a3 1e 0e 40 71 e9 86 3e f8 58 80 3e
       0.91240066 2.22062 0.26349977 0.25067878
000340 0b 3f b2 bf f7 fa 6b 3f 3e 4d 10 c0 ab b2 04 40
       -1.3925489 0.92179817 -2.2547145 2.073405
000350 07 8f 00 be 41 45 04 c0 62 a0 f1 3e a7 ba c8 3e
       -0.1255456 -2.066727 0.47192675 0.39204904
000360 27 9c 58 bf 77 10 77 3e 94 16 40 3e 61 41 d6 be
       -0.8461327 0.24127375 0.18758613 -0.41846755
000370 e0 23 24 bf 4b f1 1a bd bc 32 25 3e b6 32 cf 3e
       -0.6411724 -0.03782777 0.16132635 0.40468377
000380 f6 1e 29 3f c3 4b 85 c0 fe ef 33 40 cb 32 1e c0
       0.6606287 -4.1654983 2.811523 -2.4718502
000390 18 b2 a3 3d 7f d4 0b 40 0c 0f 97 be 2e 65 a9 3f
       0.07992953 2.1848447 -0.29503667 1.3234003
0003a0 0f 5f 94 be 49 6e 62 40 4d e8 3e c0 d6 a5 5e 40
       -0.28978774 3.5379813 -2.9829285 3.4788718
0003b0 f1 18 cc 3f 8b 90 66 bf 11 65 e0 3f 76 1b 6c c0
       1.5945112 -0.90064305 1.7530843 -3.689176
0003c0 2b 5c 84 bf 49 86 6c be 94 1a 29 bf f6 9c 76 3e
       -1.0340627 -0.230981 -0.6605618 0.24083313
0003d0 c6 64 1f bf a5 8e c4 be a8 ae f8 bf 3b 09 08 40
       -0.62263143 -0.3839008 -1.9428301 2.1255634
0003e0 0f ce e9 3e 06 5e 9f bf 6f 85 0b 40 f7 50 2a bf
       0.45665023 -1.2450569 2.1800191 -0.6652979
0003f0 19 48 54 3f 0b 9e f3 bf d4 47 c4 bd 60 2a 5e bd
       0.8292251 -1.9032606 -0.09584013 -0.05423963

value.stem.0.bias f4 [64]
000000 ff c6 a8 3f d1 45 9a 3e 8b ef d1 bf b3 7f 8f 3f
       1.3185729 0.3013139 -1.6401228 1.1210846
000010 b5 57 8f bf 80 57 29 bf d8 d3 92 3f 89 d3 a5 3f
       -1.1198641 -0.6614914 1.14709 1.295518
000020 18 9d 9c bf 4b 76 01 bd d7 05 9c 3e 3e db 56 3f
       -1.2235441 -0.031606954 0.30473205 0.8392829
000030 fe 1a 00 bf a5 6c 62 be eb 36 32 3f f0 77 bf 3e
       -0.50041187 -0.22111757 0.6961505 0.37396193
000040 f3 b6 ae 3d 2e 79 0d 3f b4 d0 fa 3e 48 9c 2d 3f
       0.085309885 0.5526303 0.48987353 0.6781659
000050 0d b6 21 bd d1 b9 d6 bd b4 5d 33 3f f2 0b 2b bf
       -0.039480258 -0.104846604 0.70064855 -0.668151
000060 67 99 c9 3e c0 75 18 bf 4d 20 fc be b6 fe 0c bf
       0.3937485 -0.5955467 -0.49243394 -0.5507616
000070 ff 8b b6 be 28 93 7c 3f 51 87 3c 3f 02 a4 dc 3b
       -0.35653684 0.9866204 0.73643976 0.0067334184
000080 fc cf 09 bf 73 8a 1d 3f f6 77 86 3f 2a 4d fe 3e
       -0.53832984 0.6153938 1.0505359 0.49668247
000090 a8 bf c5 3f 7d e9 d8 be 76 57 08 3f c5 8e ef 3e
       1.5449114 -0.42365637 0.53258455 0.46788612
0000a0 34 95 2a 3f 40 09 f4 bf 14 49 d6 be 40 61 59 be
       0.66633916 -1.9065323 -0.4185263 -0.21228504
0000b0 1e b8 d1 3e 97 f8 20 bf 21 c2 e1 3e 76 d2 6c bf
       0.40960783 -0.6287932 0.4409342 -0.9250864
0000c0 81 55 87 be 9b 50 20 bf 75 2f 5f 3e ce c9 b3 3f
       -0.26432422 -0.62622994 0.21795447 1.4045961
0000d0 5c 8c 9b 3c e2 6f 8a 3e 48 21 7b 3d 72 2c 93 3f
       0.018987827 0.27038485 0.061311036 1.1497939
0000e0 ce d2 0d bd 22 da e0 3e 60 a0 1f 3d f3 2b 7a bd
       -0.034624867 0.43916422 0.038971305 -0.06107707
0000f0 fc 83 82 3f 87 98 8d 3d 50 8c c2 3d 81 a5 c7 3f
       1.0196528 0.06913858 0.09499419 1.5597383

value.stem.2.weight f4 [64, 64]
000000 e0 72 d1 3f a9 26 df be 2d ff 18 c0 61 bb c1 3f
       1.6363182 -0.43584183 -2.3905747 1.5135309
000010 a7 14 20 bf 6e df 8f bf d8 56 64 3f 12 b4 02 3f
       -0.6253151 -1.124006 0.89195013 0.51056015
000020 23 b0 ab bf 22 e9 47 3e 5f bc b3 3f 5d db 89 3f
       -1.3413128 0.19522527 1.4041861 1.0770069
000030 71 1d e0 3d a0 80 55 3f 85 7e c7 be 3e 68 be be
       0.109431155 0.8339939 -0.38963714 -0.37188905
000040 30 20 d1 be aa 4a 4a 3e 62 01 f2 3e 84 a3 1f 3f
       -0.4084487 0.19755045 0.4726668 0.6235888
000050 eb d7 1d bf 57 5a 4b bf 8f ba 79 3f 68 f7 7a be
       -0.6165759 -0.7943472 0.9755029 -0.2450844
000060 25 a0 91 3f ad 36 28 3c 97 23 c5 bf 7c 32 38 bf
       1.1376997 0.010266942 -1.5401486 -0.71952033
000070 5e 2a ed be b6 e4 a9 3d 6a d2 80 be bb a2 36 bf
       -0.46321386 0.08295576 -0.25160533 -0.71342057
000080 d4 7a 1f 3f fd 4c 64 be 66 e3 7d 3f 3d f5 aa be
       0.62296796 -0.22294994 0.9917511 -0.33390227
000090 bf b7 c3 3f 18 2e 78 be ee b3 9b 3f f9 02 55 3f
       1.529045 -0.24236333 1.2164285 0.8320766
0000a0 15 2b 94 3e a0 99 55 bf 90 72 33 bc 2f bd d6 3f
       0.2893912 -0.8343754 -0.010952607 1.6776484
0000b0 bf 74 5b bf bb 45 d0 be 9a 12 d6 3f 03 39 12 bf
       -0.85725015 -0.406782 1.6724427 -0.5711824
0000c0 e5 63 1f 3d e3 49 c0 bb 7e ad ca be 64 98 c1 3f
       0.038913626 -0.005868183 -0.3958549 1.5124631
0000d0 55 ec 67 3f 05 ed 04 bf 8c c2 7a bf 3a 75 ae 3e
       0.9059499 -0.51924163 -0.97953105 0.34073812
0000e0 dc 9c e0 3e 22 4c 93 bd df e3 19 bf aa 0f 93 3f
       0.43869674 -0.071922556 -0.6011333 1.1489155
0000f0 a8 fe a6 3f 7b fd 0b bf 8e 70 87 be fd af 80 3f
       1.3046465 -0.54683656 -0.2645306 1.0053707
000100 99 e2 d7 3f b9 d0 94 3f b1 73 e6 3e 10 a8 77 3f
       1.6866027 1.1626197 0.4501014 0.9674082
000110 f8 6b f0 bd 21 5c 90 bf 93 46 d4 3e 6a f6 e3 bd
       -0.117393434 -1.1278116 0.41460094 -0.11130984
000120 c4 0d dc bd e6 90 67 bf e6 54 aa 3e 61 da b5 3f
       -0.10744813 -0.9045547 0.33267897 1.4207269
000130 c8 65 e3 bf ff f3 70 bf 21 d0 0a be 84 08 23 be
       -1.7765436 -0.9412231 -0.13555957 -0.15921217
000140 85 e3 71 bf d6 47 5d 3f 23 00 17 bf 9b f5 32 3f
       -0.9448779 0.8643774 -0.58984584 0.69906014
000150 f9 e4 72 3f 4b 40 92 3e 6a 1d 88 3f 67 61 53 bf
       0.94880635 0.28564677 1.0633976 -0.825705
000160 63 1a 32 bf 22 61 67 bf ec 26 9a 3e 36 ee 24 bf
       -0.6957151 -0.9038259 0.3010782 -0.6442598
000170 94 6a 1e bf ed b6 90 3f 74 74 a9 bd 03 0b ea 3e
       -0.61881375 1.1305825 -0.08274165 0.45711526
000180 65 40 bb 3d f4 9b af 3f 31 35 e6 3e f8 fa 0a bc
       0.09143142 1.3719468 0.44962457 -0.008482687
000190 41 83 48 40 96 5d 38 bf 6d c4 26 bf 4c bb e8 3f
       3.133011 -0.720178 -0.6514347 1.8182158
0001a0 ce f3 da 3e c3 23 c3 bf 59 15 95 be b3 23 8f bf
       0.42764133 -1.5245289 -0.2911785 -1.118277
0001b0 7a f8 68 3f 75 e6 6a bf f5 3e 49 3e b4 ea 33 be
       0.91004145 -0.917579 0.19652922 -0.17570001
0001c0 d9 36 be 3e 9c fa f8 be 60 1f 57 be 3b a2 30 3e
       0.3715122 -0.486287 -0.21008062 0.17249386
0001d0 c2 c2 4e 3f 2e 40 b6 3f 58 ef 8d 3f 52 a6 98 3f
       0.80765927 1.4238336 1.1088667 1.1925757
0001e0 5b dc 81 be 4e 47 3f 3f c6 0f 2b be e8 71 c0 3f
       -0.2536343 0.7471818 -0.16705236 1.5034761
0001f0 af ea 7c 3f 4a 81 43 3f dd 77 0a 3e 62 41 31 3f
       0.987956 0.76369154 0.13522287 0.6924039
000200 52 84 c0 3f 92 3e 8e 3f 57 47 58 3d 01 a4 02 40
       1.5040381 1.1112845 0.05280241 2.04126
000210 b1 67 91 3d 48 72 50 bf e2 13 09 3e fe c7 59 be
       0.07099856 -0.8142438 0.13386491 -0.21267697
000220 d3 bb 75 3d f5 b3 07 bf fc ef 58 bf 23 29 59 3d
       0.059993576 -0.5300897 -0.8474119 0.053017747
000230 80 13 5f bf 8d 3e 11 be 7e f1 c2 bf e7 cd 20 bf
       -0.8713913 -0.14184017 -1.5229948 -0.6281418
000240 38 ea f9 be 46 5d c7 3d 19 7a d2 be dd b1 45 3f
       -0.48811507 0.09734587 -0.41108778 0.7722452
000250 50 94 69 be 8b ee 53 be 6e 3f 14 3e e4 02 30 3f
       -0.22810483 -0.20696466 0.14477322 0.6875441
000260 31 16 9b 3f 49 79 4f 3f 6d 9f 01 bf cf 6a 06 bf
       1.2116147 0.8104444 -0.5063389 -0.52506727
000270 29 7f 39 bf 6b b1 67 3f e5 a4 8b bf af 86 ac bc
       -0.72459656 0.90505093 -1.0909697 -0.021060316
000280 c5 b9 b9 3e f3 88 e9 3f 32 b1 19 3f 8f 72 5d 3e
       0.36274543 1.8244919 0.60036004 0.21625732
000290 1f 3e a4 3f e1 f2 f9 be d4 f9 3f bf 24 c4 7a 3f
       1.2831458 -0.48818114 -0.7499058 0.97955537
0002a0 69 24 1b 3d 8e 63 91 bf c2 0f cb 3c 57 81 54 bf
       0.03787652 -1.1358507 0.024787787 -0.83009857
0002b0 a2 14 c4 3f 03 df b7 bf 65 18 9b 3f 59 cc 82 bf
       1.5318797 -1.4364933 1.211682 -1.0218612
0002c0 f7 ae a0 3e 21 bd 68 bf 80 fa cb bf ac 5a 0a 3f
       0.31383488 -0.9091359 -1.5935822 0.54044604
0002d0 48 c6 1d 3f b1 c5 a0 3f c2 e6 a6 3f 89 e3 b8 3f
       0.6163068 1.2560331 1.3039172 1.4444438
0002e0 84 79 21 bd 68 4f 47 bf 20 cc ad bf 71 3a 53 3f
       -0.039422527 -0.7785554 -1.3577919 0.8251105
0002f0 18 74 33 3f b4 68 ce 3e de fd 91 bf 82 45 b5 bc
       0.7009902 0.40314257 -1.1405599 -0.02212787
000300 65 f3 21 bf 15 8a be 3f 80 56 14 bf 3c 23 73 be
       -0.63262016 1.4885889 -0.5794449 -0.2374391
000310 dc 1d a3 bf 31 ec c0 3d 4b 38 c6 3e 0c d6 27 bb
       -1.2743487 0.0942005 0.38714823 -0.002560976
000320 e6 7e 04 bd 7a db e8 3d 74 37 19 be b9 b0 9f 3f
       -0.032347582 0.11369987 -0.1496256 1.2475806
000330 45 36 3f bf 01 bd 56 3f b8 d3 b8 3f 80 c3 26 3f
       -0.74692184 0.8388215 1.4439611 0.6514206
000340 9e 8c c5 3e 55 1c d9 bf 75 ca 3b 3f ca 3d 58 bd
       0.38583845 -1.6961771 0.733558 -0.0527933
000350 0a bf a5 bf 23 3d 59 3f 0e 31 25 bf 8a 15 b9 bf
       -1.2948925 0.8485891 -0.64527977 -1.4459698
000360 e3 a7 02 bf db 22 41 bf a8 2e e1 3e 50 95 af bf
       -0.51037425 -0.7544381 0.43980908 -1.3717442
000370 85 20 e3 bf ae 27 17 be 84 27 a3 3f 51 cc af bf
       -1.7744299 -0.1476123 1.2746434 -1.3734227
000380 64 38 61 be b9 73 07 3e 64 24 2d bf 67 a8 47 3f
       -0.21994168 0.13227738 -0.6763365 0.77991337
000390 92 d5 39 be 2e fe 00 3e a3 d5 e9 3f ff 09 e3 3e
       -0.18147877 0.12596962 1.8268322 0.44343564
0003a0 79 dc b4 bf 96 a7 de bd 3a b8 a5 3c e0 b0 5f 3f
       -1.4129783 -0.10871808 0.020229448 0.87379265
0003b0 83 e4 52 3e 94 50 63 bf b2 f2 be 3f 02 a1 ed 3d
       0.20594983 -0.8879483 1.4917815 0.116029754
0003c0 70 51 f2 3c a5 06 82 bf 25 a2 26 be e3 74 35 3f
       0.029579848 -1.0158278 -0.1627279 0.7088148
0003d0 1f d7 40 3f fd 8f 77 bf 2c d9 63 bf 59 61 a9 3d
       0.7532825 -0.96704084 -0.89003253 0.08270521
0003e0 68 75 d8 3e 63 4e 7e bd c9 cf a5 bf 1d 31 71 bf
       0.42277074 -0.062086474 -1.2954036 -0.94215566
0003f0 e0 0b f2 3f 7b 2c 82 3f 6f 35 7f bf fb 8f 20 be
       1.8909874 1.0169824 -0.9969091 -0.15679924

value.stem.2.bias f4 [64]
000000 cb df 93 3e bd 55 74 3e 79 01 27 3f ee 32 db 3e
       0.28881678 0.23860832 0.6523662 0.42812294
000010 64 47 0c bd a5 b6 11 3f f7 00 9e bd 39 17 91 3e
       -0.03424777 0.5691932 -0.07715028 0.2833803
000020 3d 48 ca bd b7 7a e3 be ca 64 78 bf b8 65 f1 3e
       -0.098770596 -0.44429561 -0.9702879 0.47147918
000030 e7 4d 1d bf e1 99 32 bf e5 c2 4d be 3b 05 b6 3c
       -0.61446995 -0.6976605 -0.20093878 0.022219291
000040 08 73 f8 bb 58 37 c3 bc 88 4c 99 3e 27 31 10 3d
       -0.007582072 -0.0238301 0.299412 0.035203125
000050 4b 38 5f be b2 d5 d1 3e c2 8e c6 be d7 68 a0 be
       -0.21798818 0.4098335 -0.3878079 -0.31329986
000060 0b 26 c3 3e 4d 23 d2 3e c6 bb 0b 3f c5 72 4b bf
       0.38114962 0.41042557 0.54583395 -0.79472
000070 12 92 a9 be 31 a8 06 be 9f 56 f0 be 36 bd 34 bf
       -0.33119255 -0.13150097 -0.46941087 -0.7060121
000080 6e 5d 9e be 10 51 92 3e fc 90 91 be 48 05 87 bd
       -0.30930656 0.2857747 -0.28430927 -0.06592804
000090 9c c8 65 3f ec bc ff be a3 68 ba 3c 23 59 3e 3f
       0.8975923 -0.49948823 0.022754973 0.7435476
0000a0 08 86 9e 3e ec f4 a3 bd 38 75 be be b5 60 9f be
       0.30961633 -0.080056995 -0.37198806 -0.3112847
0000b0 65 35 6e 3e c5 91 6e 3d cf ba f5 3e 44 2d 07 bf
       0.23262556 0.058244485 0.47994086 -0.52803445
0000c0 3c 6c c7 3f bd 8d a1 3e 24 ba 5b bf 2b e5 a3 3e
       1.5579906 0.3155345 -0.85830903 0.3201078
0000d0 6c 16 00 bf 24 22 a2 3e e2 89 fa 3e ae c2 8f 3f
       -0.50034213 0.31666672 0.4893332 1.1231287
0000e0 93 32 b7 be 0f 47 8d 3d 8a f2 83 be 3e f7 d3 3e
       -0.35780773 0.06898319 -0.2577098 0.41399568
0000f0 16 fb 0a 3e 93 94 28 bd 70 37 94 be be a3 1e bf
       0.13572344 -0.041157316 -0.28948545 -0.619686
