weights/best.pth (torch, 40407 bytes, 15 tensors)

policy.stem.0.weight f4 [64, 4]
-0.115726374 -0.36719027 0.24708882 -0.4725159 0.031535234 -0.41056016 0.07810273 0.2928942
0.05085151 0.4717943 -0.44750464 0.37431267 0.4656869 0.0057870685 -0.31832978 -0.3376718
-0.023411963 -0.4572231 0.2046015 0.2900453 -0.40255615 0.4543025 -0.45184317 0.46444994
0.104788095 0.2910102 0.061010823 -0.25125515 -0.19566625 -0.13329503 0.19458836 -0.2964897
0.25153637 0.08989388 -0.41739276 -0.10638304 0.43759248 0.4933065 0.3844854 0.3725473
0.22073106 0.044574834 -0.016338198 -0.471525 -0.05703311 -0.48920277 -0.07882203 -0.3205227
-0.17570186 -0.4901921 -0.31851062 0.09260997 0.38955703 -0.43363047 -0.082626946 0.2428774
-0.1939623 0.34864396 -0.089962214 0.2823019 0.39724737 0.4816637 0.31302175 0.088313624
0.14416969 0.09315954 -0.070833385 -0.016621953 0.10822491 -0.39477047 -0.113731116 0.20706229
0.3359624 -0.03147321 -0.274152 0.2270784 0.32195652 0.28548354 0.18220752 -0.15632196
0.3971337 -0.40793896 -0.07783833 0.4764828 0.3707931 -0.45318305 -0.4917194 -0.3226197
0.2929013 -0.42496642 -0.44280583 -0.47711632 0.32409343 -0.018264053 0.40188897 0.28781968
0.45649534 0.0020886846 0.15063646 -0.31030452 -0.43417585 0.17510496 0.10005926 0.14095289
-0.46721467 -0.028951218 -0.2583616 -0.2711763 0.14778586 0.4360966 0.48875636 -0.4902692
-0.15091461 0.1345793 -0.30169713 -0.07999589 -0.010353657 0.23635863 -0.36877802 -0.18881387
0.19540168 0.18371111 0.20807768 -0.24452901 -0.25774696 0.20123526 -0.48370713 0.110212915
-0.17417006 -0.093118764 -0.49077606 -0.26127034 0.18263699 -0.02721469 0.23644002 0.38053754
0.4793677 0.36995205 -0.38126475 0.37583342 0.31524983 -0.11454904 0.46756628 -0.21430106
-0.37800008 -0.43854672 0.35610458 -0.16695088 -0.4426724 -0.056009512 0.07063455 0.33460006
0.03425092 -0.27725315 -0.26549068 0.036298234 0.41169488 -0.27055272 0.28265217 0.47346961
0.20186196 0.27176088 -0.02260791 0.39554977 0.36710995 0.4420981 -0.11785779 -0.47496122
-0.17674404 0.11343727 -0.42426783 -0.01848041 0.09728539 -0.14110333 0.08167812 -0.21051769
0.052482042 -0.40257445 -0.22421038 -0.38985696 0.29297253 0.23204286 0.34034804 -0.02823634
-0.06331374 -0.2966803 -0.30350757 0.03598479 0.36484724 0.31471094 -0.4070126 0.36375734
-0.20763616 -0.29517213 -0.2815924 0.3576189 0.051695812 0.1129947 0.20225804 -0.31016856
-0.32581076 0.10219097 0.44277662 0.28767118 0.16050848 -0.26269963 -0.4704646 -0.20113783
0.3857323 0.4377199 0.051538825 -0.13283423 -0.16614936 0.1270668 0.4688318 -0.2346597
0.3682278 -0.3808116 -0.426192 -0.43375528 -0.27441835 0.0040360815 0.29443234 -0.45840213
0.15913792 -0.4090366 0.26570663 0.3187184 0.047525525 -0.44281793 -0.16959597 -0.23592214
-0.23006313 -0.112307675 0.16084328 0.07469129 0.038707443 0.3202544 -0.1267592 0.42387435
0.2389885 -0.23076697 -0.30898038 0.21321875 -0.12837912 -0.23227328 -0.09260336 -0.11906251
0.23368178 -0.2979377 0.2440162 -0.3328553 0.4507069 -0.40232474 0.2516986 0.39370674
00000000: f301 edbd 5d00 bcbe da04 7d3e 9bed f1be
00000010: 172b 013d f134 d2be 53f4 9f3d 3bf6 953e
00000020: ac49 503d 068f f13e 541f e5be e9a5 bf3e
00000030: 836e ee3e 73a1 bd3b 1ffc a2be 51e3 acbe
00000040: 72ca bfbc 2519 eabe 0e83 513e d180 943e
00000050: d71b cebe 569a e83e fd57 e7be 62cc ed3e
00000060: 249b d63d 4aff 943e 7ce6 793d 84a4 80be
00000070: bc5c 48be 7e7e 08be 2c42 473e 7fcd 97be
00000080: 60c9 803e 481a b83d 81b4 d5be 5adf d9bd
00000090: 1f0c e03e ab92 fc3e 45db c43e 85be be3e
000000a0: 5307 623e 1a94 363d afd7 85bc ba6b f1be
000000b0: 8d9b 69bd c978 fabe 726d a1bd 8d1b a4be
000000c0: 30eb 33be 75fa fabe d313 a3be 4caa bd3d
000000d0: 0574 c73e d004 debe 5138 a9bd dab4 783e
000000e0: 0e9e 46be 7681 b23e 1c3e b8bd e089 903e
000000f0: 0264 cb3e a09c f63e 6344 a03e c6dd b43d
00000100: 38a1 133e 6eca be3d 1811 91bd c32a 88bc
00000110: 06a5 dd3d 5b1f cabe dceb e8bd 2308 543e
00000120: 4403 ac3e 0dea 00bd a75d 8cbe 3d87 683e
00000130: 7cd7 a43e e62a 923e 9c94 3a3e dd12 20be
00000140: 1c55 cb3e 60dd d0be b469 9fbd 8ef5 f33e
00000150: 98d8 bd3e 9c07 e8be a5c2 fbbe 692e a5be
00000160: 29f7 953e 3395 d9be 72b7 e2be 9748 f4be
00000170: 93ef a53e 7f9e 95bc 64c4 cd3e 1a5d 933e
00000180: c2b9 e93e 50e2 083b 7240 1a3e 3ce0 9ebe
00000190: 4c4c debe b74e 333e dfeb cc3d f455 103e
000001a0: c336 efbe 1b2b edbc f947 84be 9fd7 8abe
000001b0: 2d55 173e 0e48 df3e 463e fa3e 9104 fbbe
000001c0: 5c89 1abe 28cf 093e 0c78 9abe e3d4 a3bd
000001d0: 63a2 29bc ff07 723e 79d0 bcbe 6c58 41be
000001e0: 6117 483e c41e 3c3e 5112 553e d065 7abe
000001f0: 69f7 83be 9e10 4e3e 76a8 f7be 4fb7 e13d
00000200: a359 32be 0db5 bebd 0047 fbbe 3ac5 85be
00000210: 3105 3b3e 57f1 debc 551d 723e d1d5 c23e
00000220: af6f f53e 5b6a bd3e 2235 c3be 3d6d c03e
00000230: 6d68 a13e b098 eabd d964 ef3e bd71 5bbe
00000240: 3a89 c1be 3289 e0be 5753 b63e 2cf5 2abe
00000250: f5a5 e2be 3b6a 65bd d9a8 903d b350 ab3e
00000260: b14a 0c3d 20f4 8dbe 65ee 87be 75ad 143d
00000270: acc9 d23e e385 8abe c9b7 903e 9c6a f23e
00000280: e7b4 4e3e 3e24 8b3e 3934 b9bc 8085 ca3e
00000290: d6f5 bb3e af5a e23e 6d5f f1bd 1e2e f3be
000002a0: 64fc 34be cd51 e83d a239 d9be 3b64 97bc
000002b0: 903d c73d 647d 10be dc46 a73d f391 57be
000002c0: 69f7 563d 3d1e cebe 6897 65be 559b c7be
000002d0: 7f00 963e a59c 6d3e 1942 ae3e e64f e7bc
000002e0: a2aa 81bd 7be6 97be 5865 9bbe ca64 133d
000002f0: 42cd ba3e cb21 a13e f563 d0be 673e ba3e
00000300: 939e 54be cd20 97be e12c 90be d319 b73e
00000310: fdbe 533d c469 e73d bb1c 4f3e 6ace 9ebe
00000320: abd0 a6be 8049 d13d 9eb3 e23e a349 933e
00000330: 565c 243e 9180 86be bce0 f0be 13f7 4dbe
00000340: b47e c53e d31c e03e 601a 533d b205 08be
00000350: 0f23 2abe cd1d 023e b90a f03e a24a 70be
00000360: 5b88 bc3e bdf9 c2be d635 dabe 2c15 debe
00000370: 9080 8cbe 1b41 843b d6bf 963e afb3 eabe
00000380: 0df5 223e 3f6d d1be b30a 883e 0f2f a33e
00000390: 20aa 423d 08b9 e2be 91aa 2dbe 9395 71be
000003a0: ab95 6bbe 9101 e6bd 1ab4 243e bff7 983d
000003b0: b28b 1e3d 62f8 a33e 2acd 01be 0f06 d93e
000003c0: 67b9 743e 2d4e 6cbe ad32 9ebe 0456 5a3e
000003d0: d175 03be 0cd9 6dbe d5a6 bdbd 0cd7 f3bd
000003e0: 474a 6f3e 4a8b 98be 62df 793e 036c aabe
000003f0: 0ec3 e63e 82fd cdbe a4de 803e ee93 c93e

policy.stem.0.bias f4 [64]
0.0 0.0 0.0 0.0 0.0 0.0 0.0 0.0
0.0 0.0 0.0 0.0 0.0 0.0 0.0 0.0
0.0 0.0 0.0 0.0 0.0 0.0 0.0 0.0
0.0 0.0 0.0 0.0 0.0 0.0 0.0 0.0
0.0 0.0 0.0 0.0 0.0 0.0 0.0 0.0
0.0 0.0 0.0 0.0 0.0 0.0 0.0 0.0
0.0 0.0 0.0 0.0 0.0 0.0 0.0 0.0
0.0 0.0 0.0 0.0 0.0 0.0 0.0 0.0
00000000: 0000 0000 0000 0000 0000 0000 0000 0000
00000010: 0000 0000 0000 0000 0000 0000 0000 0000
00000020: 0000 0000 0000 0000 0000 0000 0000 0000
00000030: 0000 0000 0000 0000 0000 0000 0000 0000
00000040: 0000 0000 0000 0000 0000 0000 0000 0000
00000050: 0000 0000 0000 0000 0000 0000 0000 0000
00000060: 0000 0000 0000 0000 0000 0000 0000 0000
00000070: 0000 0000 0000 0000 0000 0000 0000 0000
00000080: 0000 0000 0000 0000 0000 0000 0000 0000
00000090: 0000 0000 0000 0000 0000 0000 0000 0000
000000a0: 0000 0000 0000 0000 0000 0000 0000 0000
000000b0: 0000 0000 0000 0000 0000 0000 0000 0000
000000c0: 0000 0000 0000 0000 0000 0000 0000 0000
000000d0: 0000 0000 0000 0000 0000 0000 0000 0000
000000e0: 0000 0000 0000 0000 0000 0000 0000 0000
000000f0: 0000 0000 0000 0000 0000 0000 0000 0000

policy.stem.2.weight f4 [64, 64]
-0.0050417273 0.29808423 -0.049646642 -0.32688838 0.06461279 -0.25443223 0.20266384 0.26984635
-0.047735315 0.11447172 0.15328889 0.23107083 -0.33903793 -0.09091399 -0.036398333 0.2809653
0.18325615 0.1441273 0.2538489 -0.024737397 -0.2441851 -0.16655637 0.121733196 -0.14953858
0.2993026 -0.02129741 0.19357426 -0.29420018 0.25135222 -0.29768756 0.19720386 0.054091908
0.06562995 -0.3513544 -0.13267595 0.10845461 0.27094644 0.124309465 -0.07061059 -0.062166262
0.020804835 0.22926912 0.21574843 -0.06796176 -0.23933192 0.24094763 -0.14721459 -0.119268686
0.1488702 -0.21170695 -0.2843372 0.29414478 0.2233259 -0.18063739 0.2919723 -0.16869895
-0.01841444 -0.15462965 0.018254291 0.1444392 -0.101853676 -0.35386595 -0.07997383 0.10067048
0.04783425 -0.19150437 -0.3282971 0.16730464 0.016530426 -0.32486758 -0.29870158 0.11545089
-0.2271591 0.17575972 0.16194679 0.041990403 -0.25845084 0.3451412 0.06678914 0.3157128
-0.1939808 -0.12898056 0.2094937 -0.017551195 -0.07742238 -0.35561052 -0.07174277 0.16560397
-0.002794574 0.17310078 -0.018585341 0.21254417 -0.20069486 0.011561224 0.2932713 -0.097187094
0.21433695 -0.1644839 0.33055088 0.19120778 -0.2264338 -0.2654336 -0.1573627 0.2195678
-0.009014465 0.27595 0.29293257 -0.29966003 0.23980087 -0.098746896 0.18053763 0.10864637
0.030548722 0.105077684 0.21363656 -0.17252915 -0.12586923 -0.19445325 -0.3396238 0.28998566
0.17739123 -0.36021614 -0.18552177 -0.12712899 0.23936203 -0.040378038 0.0019356316 0.07010662
0.01662106 0.19603765 0.31084186 0.12318069 -0.24595521 0.35342255 0.22215849 0.16598542
-0.2587067 0.22050676 0.06543857 -0.34099913 -0.16003972 0.086312965 0.24443644 0.16159917
-0.22093727 0.3306021 0.26685038 0.21551709 0.079148486 -0.17399624 0.17279816 -0.227264
-0.15860814 0.19308509 0.07716842 0.23477498 -0.3145758 -0.075799346 -0.008298809 0.010342196
-0.31840107 0.109799154 0.30301604 -0.20699055 -0.29817322 0.10228259 -0.27066278 -0.07998308
0.15934664 -0.11945365 -0.33957335 0.015491505 -0.26104653 -0.10992024 -0.0742457 -0.19768538
0.038420726 0.020221066 -0.055592824 0.060717054 0.10973859 0.23398946 0.13039756 0.34130535
0.08240376 -0.23016208 -0.21935502 0.2994473 0.20317237 -0.014182057 0.34384537 -0.05732017
-0.21782257 0.038989354 -0.2594387 -0.25546286 -0.028479654 0.31714976 0.1983724 -0.14134263
-0.050401613 -0.04393821 0.030292476 -0.21790864 0.13360259 -0.30308864 0.0029341609 -0.17772865
-0.14128175 0.28819856 0.019637985 0.35871515 0.22049902 -0.06561451 0.16005646 0.097091556
0.27394888 -0.28471956 0.13197224 0.34389254 -0.04723676 0.040067032 -0.052860536 -0.18125609
0.14292939 0.14132783 0.020827333 0.28473487 0.32102686 0.35334253 -0.36014694 0.26227215
-0.22923766 -0.036838558 0.055330683 0.052182432 0.029374257 0.003452331 0.22471927 0.14916123
-0.13681433 -0.30546376 0.17802727 0.29317647 -0.19508757 0.120203726 -0.074510634 -0.041720524
-0.29781762 -0.014512377 0.017899796 0.30226916 -0.28953075 -0.3448079 -0.022408126 -0.29420245
00000000: 1335 a5bb 7f9e 983e 475a 4bbd ea5d a7be
00000010: b653 843d f144 82be 1c87 4f3e 4d29 8a3e
00000020: 1b86 43bd 2670 ea3d c3f7 1c3e d59d 6c3e
00000030: 6196 adbe 1d31 babd 6b16 15bd afda 8f3e
00000040: 80a7 3b3e 1b96 133e 7cf8 813e 15a6 cabc
00000050: a90b 7abe c18d 2abe 414f f93d a420 19be
00000060: 313e 993e e877 aebc 5538 463e 68a1 96be
00000070: 3db1 803e 816a 98be cfef 493e 7a8f 5d3d
00000080: ff68 863d b9e4 b3be 34dc 07be 731d de3d
00000090: 7eb9 8a3e f695 fe3d 499c 90bd 0da2 7ebd
000000a0: e76e aa3c 86c5 6a3e 28ed 5c3e 892f 8bbd
000000b0: 6d13 75be faba 763e 6cbf 16be 2443 f4bd
000000c0: 6e71 183e b5c9 58be a594 91be 259a 963e
000000d0: 8baf 643e 02f9 38be 657d 953e 6bbf 2cbe
000000e0: e1d9 96bc 3c57 1ebe 068a 953c dfe7 133e
000000f0: a998 d0bd eb2d b5be 52c9 a3bd 532c ce3d
00000100: d9ed 433d b919 44be 8f16 a8be e851 2b3e
00000110: d16a 873c 0b55 a6be 6aef 98be 8471 ec3d
00000120: 659c 68be 5bfa 333e 61d5 253e 21fe 2b3d
00000130: ab53 84be 59b6 b03e bfc8 883d 1ca5 a13e
00000140: e7a2 46be 7b13 04be 8485 563e 86c7 8fbc
00000150: a08f 9ebd 9512 b6be e0ed 92bd 1694 293e
00000160: 2c25 37bb 5541 313e 4940 98bc 2ea5 593e
00000170: f482 4dbe 4a6b 3d3c a827 963e 070a c7bd
00000180: 257b 5b3e 786e 28be f73d a93e f9cb 433e
00000190: 43de 67be eae6 87be b023 21be 62d6 603e
000001a0: 68b1 13bc 5249 8d3e 42fb 953e 0a6d 99be
000001b0: 5c8e 753e d03b cabd dbde 383e fd81 de3d
000001c0: 5041 fa3c f832 d73d 8bc3 5a3e 7bab 30be
000001d0: dde3 00be c11e 47be 2ce3 adbe 0079 943e
000001e0: 0ca6 353e 406e b8be 6bf9 3dbe 1a2e 02be
000001f0: 521b 753e 7163 25bd 05b5 fd3a 0f94 8f3d
00000200: e428 883c 18be 483e aa26 9f3e 2846 fc3d
00000210: afdb 7bbe cdf3 b43e 847d 633e 15f8 293e
00000220: 3475 84be 86cc 613e a804 863d 7097 aebe
00000230: 74e1 23be dac4 b03d 8c4d 7a3e 417a 253e
00000240: 613d 62be ae44 a93e 9da0 883e 83b0 5c3e
00000250: 9a18 a23d 122c 32be 00f2 303e e5b7 68be
00000260: 2c6a 22be 19b8 453e 7a0a 9e3d da68 703e
00000270: 1410 a1be b03c 9bbd baf7 07bc 5072 293c
00000280: 7705 a3be 61de e03d eb24 9b3e 55f5 53be
00000290: 29aa 98be 8979 d13d 5094 8abe 2bce a3bd
000002a0: c42b 233e 1ea4 f4bd 8fdc adbe 15d0 7d3c
000002b0: e4a7 85be dd1d e1bd 210e 98bd 096e 4abe
000002c0: 0d5f 1d3d a6a6 a53c 4db5 63bd 72b2 783d
000002d0: a0be e03d ef9a 6f3e f086 053e 93bf ae3e
000002e0: 4dc3 a83d 9caf 6bbe 9a9e 60be 2851 993e
000002f0: 6b0c 503e dc5b 68bc 800c b03e 8ec8 6abd
00000300: e10c 5fbe 4db3 1f3d 26d5 84be 07cc 82be
00000310: 2a4e e9bc 7461 a23e 2222 4b3e 1fbc 10be
00000320: ec71 4ebd 8df8 33bd ed27 f83c 7123 5fbe
00000330: 1ecf 083e 6f2e 9bbe 0d4b 403b 80fe 35be
00000340: 2aac 10be c38e 933e d7df a03c 83a9 b73e
00000350: 7fca 613e e660 86bd d7e5 233e f0d7 c63d
00000360: 0743 8c3e c3c6 91be bb23 073e af12 b03e
00000370: 557b 41bd 541d 243d 4a84 58bd 329b 39be
00000380: 155c 123e 3eb8 103e 159e aa3c c5c8 913e
00000390: a25d a43e 50e9 b43e 2e65 b8be 8948 863e
000003a0: 47bd 6abe 07e4 16bd 6da2 623d 3fbd 553d
000003b0: 48a2 f03c 8140 623b cf1c 663e b9bd 183e
000003c0: 0e19 0cbe bf65 9cbe c84c 363e 3a1b 963e
000003d0: 09c5 47be 5f2d f63d 0899 98bd 24e3 2abd
000003e0: 8d7b 98be 52c5 6dbc 98a2 923c 06c3 9a3e
000003f0: 603d 94be a98a b0be 3f91 b7bc b4a1 96be

policy.stem.2.bias f4 [64]
0.0 0.0 0.0 0.0 0.0 0.0 0.0 0.0
0.0 0.0 0.0 0.0 0.0 0.0 0.0 0.0
0.0 0.0 0.0 0.0 0.0 0.0 0.0 0.0
0.0 0.0 0.0 0.0 0.0 0.0 0.0 0.0
0.0 0.0 0.0 0.0 0.0 0.0 0.0 0.0
0.0 0.0 0.0 0.0 0.0 0.0 0.0 0.0
0.0 0.0 0.0 0.0 0.0 0.0 0.0 0.0
0.0 0.0 0.0 0.0 0.0 0.0 0.0 0.0
00000000: 0000 0000 0000 0000 0000 0000 0000 0000
00000010: 0000 0000 0000 0000 0000 0000 0000 0000
00000020: 0000 0000 0000 0000 0000 0000 0000 0000
00000030: 0000 0000 0000 0000 0000 0000 0000 0000
00000040: 0000 0000 0000 0000 0000 0000 0000 0000
00000050: 0000 0000 0000 0000 0000 0000 0000 0000
00000060: 0000 0000 0000 0000 0000 0000 0000 0000
00000070: 0000 0000 0000 0000 0000 0000 0000 0000
00000080: 0000 0000 0000 0000 0000 0000 0000 0000
00000090: 0000 0000 0000 0000 0000 0000 0000 0000
000000a0: 0000 0000 0000 0000 0000 0000 0000 0000
000000b0: 0000 0000 0000 0000 0000 0000 0000 0000
000000c0: 0000 0000 0000 0000 0000 0000 0000 0000
000000d0: 0000 0000 0000 0000 0000 0000 0000 0000
000000e0: 0000 0000 0000 0000 0000 0000 0000 0000
000000f0: 0000 0000 0000 0000 0000 0000 0000 0000

policy.stem.4.weight f4 [64, 64]
-0.0050417273 0.29808423 -0.049646642 -0.32688838 0.06461279 -0.25443223 0.20266384 0.26984635
-0.047735315 0.11447172 0.15328889 0.23107083 -0.33903793 -0.09091399 -0.036398333 0.2809653
0.18325615 0.1441273 0.2538489 -0.024737397 -0.2441851 -0.16655637 0.121733196 -0.14953858
0.2993026 -0.02129741 0.19357426 -0.29420018 0.25135222 -0.29768756 0.19720386 0.054091908
0.06562995 -0.3513544 -0.13267595 0.10845461 0.27094644 0.124309465 -0.07061059 -0.062166262
0.020804835 0.22926912 0.21574843 -0.06796176 -0.23933192 0.24094763 -0.14721459 -0.119268686
0.1488702 -0.21170695 -0.2843372 0.29414478 0.2233259 -0.18063739 0.2919723 -0.16869895
-0.01841444 -0.15462965 0.018254291 0.1444392 -0.101853676 -0.35386595 -0.07997383 0.10067048
0.04783425 -0.19150437 -0.3282971 0.16730464 0.016530426 -0.32486758 -0.29870158 0.11545089
-0.2271591 0.17575972 0.16194679 0.041990403 -0.25845084 0.3451412 0.06678914 0.3157128
-0.1939808 -0.12898056 0.2094937 -0.017551195 -0.07742238 -0.35561052 -0.07174277 0.16560397
-0.002794574 0.17310078 -0.018585341 0.21254417 -0.20069486 0.011561224 0.2932713 -0.097187094
0.21433695 -0.1644839 0.33055088 0.19120778 -0.2264338 -0.2654336 -0.1573627 0.2195678
-0.009014465 0.27595 0.29293257 -0.29966003 0.23980087 -0.098746896 0.18053763 0.10864637
0.030548722 0.105077684 0.21363656 -0.17252915 -0.12586923 -0.19445325 -0.3396238 0.28998566
0.17739123 -0.36021614 -0.18552177 -0.12712899 0.23936203 -0.040378038 0.0019356316 0.07010662
0.01662106 0.19603765 0.31084186 0.12318069 -0.24595521 0.35342255 0.22215849 0.16598542
-0.2587067 0.22050676 0.06543857 -0.34099913 -0.16003972 0.086312965 0.24443644 0.16159917
-0.22093727 0.3306021 0.26685038 0.21551709 0.079148486 -0.17399624 0.17279816 -0.227264
-0.15860814 0.19308509 0.07716842 0.23477498 -0.3145758 -0.075799346 -0.008298809 0.010342196
-0.31840107 0.109799154 0.30301604 -0.20699055 -0.29817322 0.10228259 -0.27066278 -0.07998308
0.15934664 -0.11945365 -0.33957335 0.015491505 -0.26104653 -0.10992024 -0.0742457 -0.19768538
0.038420726 0.020221066 -0.055592824 0.060717054 0.10973859 0.23398946 0.13039756 0.34130535
0.08240376 -0.23016208 -0.21935502 0.2994473 0.20317237 -0.014182057 0.34384537 -0.05732017
-0.21782257 0.038989354 -0.2594387 -0.25546286 -0.028479654 0.31714976 0.1983724 -0.14134263
-0.050401613 -0.04393821 0.030292476 -0.21790864 0.13360259 -0.30308864 0.0029341609 -0.17772865
-0.14128175 0.28819856 0.019637985 0.35871515 0.22049902 -0.06561451 0.16005646 0.097091556
0.27394888 -0.28471956 0.13197224 0.34389254 -0.04723676 0.040067032 -0.052860536 -0.18125609
0.14292939 0.14132783 0.020827333 0.28473487 0.32102686 0.35334253 -0.36014694 0.26227215
-0.22923766 -0.036838558 0.055330683 0.052182432 0.029374257 0.003452331 0.22471927 0.14916123
-0.13681433 -0.30546376 0.17802727 0.29317647 -0.19508757 0.120203726 -0.074510634 -0.041720524
-0.29781762 -0.014512377 0.017899796 0.30226916 -0.28953075 -0.3448079 -0.022408126 -0.29420245
00000000: 1335 a5bb 7f9e 983e 475a 4bbd ea5d a7be
00000010: b653 843d f144 82be 1c87 4f3e 4d29 8a3e
00000020: 1b86 43bd 2670 ea3d c3f7 1c3e d59d 6c3e
00000030: 6196 adbe 1d31 babd 6b16 15bd afda 8f3e
00000040: 80a7 3b3e 1b96 133e 7cf8 813e 15a6 cabc
00000050: a90b 7abe c18d 2abe 414f f93d a420 19be
00000060: 313e 993e e877 aebc 5538 463e 68a1 96be
00000070: 3db1 803e 816a 98be cfef 493e 7a8f 5d3d
00000080: ff68 863d b9e4 b3be 34dc 07be 731d de3d
00000090: 7eb9 8a3e f695 fe3d 499c 90bd 0da2 7ebd
000000a0: e76e aa3c 86c5 6a3e 28ed 5c3e 892f 8bbd
000000b0: 6d13 75be faba 763e 6cbf 16be 2443 f4bd
000000c0: 6e71 183e b5c9 58be a594 91be 259a 963e
000000d0: 8baf 643e 02f9 38be 657d 953e 6bbf 2cbe
000000e0: e1d9 96bc 3c57 1ebe 068a 953c dfe7 133e
000000f0: a998 d0bd eb2d b5be 52c9 a3bd 532c ce3d
00000100: d9ed 433d b919 44be 8f16 a8be e851 2b3e
00000110: d16a 873c 0b55 a6be 6aef 98be 8471 ec3d
00000120: 659c 68be 5bfa 333e 61d5 253e 21fe 2b3d
00000130: ab53 84be 59b6 b03e bfc8 883d 1ca5 a13e
00000140: e7a2 46be 7b13 04be 8485 563e 86c7 8fbc
00000150: a08f 9ebd 9512 b6be e0ed 92bd 1694 293e
00000160: 2c25 37bb 5541 313e 4940 98bc 2ea5 593e
00000170: f482 4dbe 4a6b 3d3c a827 963e 070a c7bd
00000180: 257b 5b3e 786e 28be f73d a93e f9cb 433e
00000190: 43de 67be eae6 87be b023 21be 62d6 603e
000001a0: 68b1 13bc 5249 8d3e 42fb 953e 0a6d 99be
000001b0: 5c8e 753e d03b cabd dbde 383e fd81 de3d
000001c0: 5041 fa3c f832 d73d 8bc3 5a3e 7bab 30be
000001d0: dde3 00be c11e 47be 2ce3 adbe 0079 943e
000001e0: 0ca6 353e 406e b8be 6bf9 3dbe 1a2e 02be
000001f0: 521b 753e 7163 25bd 05b5 fd3a 0f94 8f3d
00000200: e428 883c 18be 483e aa26 9f3e 2846 fc3d
00000210: afdb 7bbe cdf3 b43e 847d 633e 15f8 293e
00000220: 3475 84be 86cc 613e a804 863d 7097 aebe
00000230: 74e1 23be dac4 b03d 8c4d 7a3e 417a 253e
00000240: 613d 62be ae44 a93e 9da0 883e 83b0 5c3e
00000250: 9a18 a23d 122c 32be 00f2 303e e5b7 68be
00000260: 2c6a 22be 19b8 453e 7a0a 9e3d da68 703e
00000270: 1410 a1be b03c 9bbd baf7 07bc 5072 293c
00000280: 7705 a3be 61de e03d eb24 9b3e 55f5 53be
00000290: 29aa 98be 8979 d13d 5094 8abe 2bce a3bd
000002a0: c42b 233e 1ea4 f4bd 8fdc adbe 15d0 7d3c
000002b0: e4a7 85be dd1d e1bd 210e 98bd 096e 4abe
000002c0: 0d5f 1d3d a6a6 a53c 4db5 63bd 72b2 783d
000002d0: a0be e03d ef9a 6f3e f086 053e 93bf ae3e
000002e0: 4dc3 a83d 9caf 6bbe 9a9e 60be 2851 993e
000002f0: 6b0c 503e dc5b 68bc 800c b03e 8ec8 6abd
00000300: e10c 5fbe 4db3 1f3d 26d5 84be 07cc 82be
00000310: 2a4e e9bc 7461 a23e 2222 4b3e 1fbc 10be
00000320: ec71 4ebd 8df8 33bd ed27 f83c 7123 5fbe
00000330: 1ecf 083e 6f2e 9bbe 0d4b 403b 80fe 35be
00000340: 2aac 10be c38e 933e d7df a03c 83a9 b73e
00000350: 7fca 613e e660 86bd d7e5 233e f0d7 c63d
00000360: 0743 8c3e c3c6 91be bb23 073e af12 b03e
00000370: 557b 41bd 541d 243d 4a84 58bd 329b 39be
00000380: 155c 123e 3eb8 103e 159e aa3c c5c8 913e
00000390: a25d a43e 50e9 b43e 2e65 b8be 8948 863e
000003a0: 47bd 6abe 07e4 16bd 6da2 623d 3fbd 553d
000003b0: 48a2 f03c 8140 623b cf1c 663e b9bd 183e
000003c0: 0e19 0cbe bf65 9cbe c84c 363e 3a1b 963e
000003d0: 09c5 47be 5f2d f63d 0899 98bd 24e3 2abd
000003e0: 8d7b 98be 52c5 6dbc 98a2 923c 06c3 9a3e
000003f0: 603d 94be a98a b0be 3f91 b7bc b4a1 96be

policy.stem.4.bias f4 [64]
0.0 0.0 0.0 0.0 0.0 0.0 0.0 0.0
0.0 0.0 0.0 0.0 0.0 0.0 0.0 0.0
0.0 0.0 0.0 0.0 0.0 0.0 0.0 0.0
0.0 0.0 0.0 0.0 0.0 0.0 0.0 0.0
0.0 0.0 0.0 0.0 0.0 0.0 0.0 0.0
0.0 0.0 0.0 0.0 0.0 0.0 0.0 0.0
0.0 0.0 0.0 0.0 0.0 0.0 0.0 0.0
0.0 0.0 0.0 0.0 0.0 0.0 0.0 0.0
00000000: 0000 0000 0000 0000 0000 0000 0000 0000
00000010: 0000 0000 0000 0000 0000 0000 0000 0000
00000020: 0000 0000 0000 0000 0000 0000 0000 0000
00000030: 0000 0000 0000 0000 0000 0000 0000 0000
00000040: 0000 0000 0000 0000 0000 0000 0000 0000
00000050: 0000 0000 0000 0000 0000 0000 0000 0000
00000060: 0000 0000 0000 0000 0000 0000 0000 0000
00000070: 0000 0000 0000 0000 0000 0000 0000 0000
00000080: 0000 0000 0000 0000 0000 0000 0000 0000
00000090: 0000 0000 0000 0000 0000 0000 0000 0000
000000a0: 0000 0000 0000 0000 0000 0000 0000 0000
000000b0: 0000 0000 0000 0000 0000 0000 0000 0000
000000c0: 0000 0000 0000 0000 0000 0000 0000 0000
000000d0: 0000 0000 0000 0000 0000 0000 0000 0000
000000e0: 0000 0000 0000 0000 0000 0000 0000 0000
000000f0: 0000 0000 0000 0000 0000 0000 0000 0000

policy.stem.6.weight f4 [2, 64]
0.00042261244 -1.9161787e-05 0.0041108723 0.00019362468 -0.0006343446 -0.0016716935 -0.0040837326 0.0015736849
0.00024429406 0.0025689835 0.00065151573 -0.004626842 -0.00035619165 0.0032735474 -0.0035719418 0.0021157758
0.0025825843 -0.0041659907 0.00403919 -0.004809952 -0.004446485 -0.0031649165 -0.0032531829 0.004481899
-0.0050134067 0.0016686455 0.0008347715 0.002467568 -0.0038987657 0.0012707816 -0.0029123274 -0.00044295136
-0.0031306911 -0.00069789233 0.0025938328 9.571189e-05 -0.001761972 0.004228902 0.0018294309 -0.0032068428
-0.0036434203 -0.0025046887 0.0013238952 -0.0036869957 -0.0041062087 0.0038971715 0.0049725985 -0.00034245307
0.0026419363 -0.0033468357 -0.0008173565 0.0046368283 -0.003166634 0.0034322022 -0.0028422824 0.0026830498
-0.0025430387 0.004782224 -0.0007593865 0.004957292 -0.0030107799 -0.0010429166 0.0031080823 -0.0035115634
-0.0013033333 -0.0044830954 0.0014961937 -0.003152558 -0.0044038417 -0.00036502883 -0.00153692 -0.0005432502
-0.0009634844 -0.00459378 0.0033343001 -0.0019113552 -0.0006529942 -0.00042866284 0.0013001225 -0.0040757614
-0.004787111 -0.0012634164 -0.0010940669 -0.0048705316 0.0027006709 0.000589722 0.0035066248 -0.0045354157
0.003138399 -0.003749099 0.0034736833 -0.004757559 0.002105988 0.0011788503 0.0010331693 0.0010073126
0.0015877122 -0.00021726976 0.0032300805 0.0023058518 0.004356629 0.004721147 -0.004237212 -0.00048995874
0.0039983317 -0.00045106068 -0.002074487 -0.0015003763 0.0011009387 0.0024169825 0.0010087731 0.003084436
0.0033943877 0.002862885 0.0020040832 -0.002957597 -0.0033061418 0.0044433554 0.0037713915 0.003823286
-0.0030838621 -0.00055285054 -0.0009769091 0.0045621423 0.0023104167 0.0028197959 0.0047481395 0.0018345959
00000000: 1592 dd39 a0bd a0b7 7fb4 863b bb07 4b39
00000010: 254a 26ba ba1c dbba d5d0 85bb 1a44 ce3a
00000020: 9814 8039 645c 283b 7bca 2a3a c49c 97bb
00000030: 3cbf bab9 0389 563b 3d17 6abb d4a8 0a3b
00000040: 9340 293b dd82 88bb 2e5b 843b cd9c 9dbb
00000050: d2b3 91bb 7d6a 4fbb 5a33 55bb e5dc 923b
00000060: 8147 a4bb 74b6 da3a 91d4 5a3a ecb6 213b
00000070: 6f82 7fbb 5b90 a63a bfdc 3ebb ed3b e8b9
00000080: 482c 4dbb c3f2 36ba 4bfd 293b eeb8 c838
00000090: f8f1 e6ba 9a92 8a3b 84c9 ef3a e529 52bb
000000a0: 73c6 6ebb b425 24bb 8d86 ad3a 86a1 71bb
000000b0: 608d 86bb b067 7f3b 2ef1 a23b 468b b3b9
000000c0: 5624 2d3b 9656 5bbb de43 56ba 89f0 973b
000000d0: 4d87 4fbb ccee 603b 9645 3abb 1bd6 2f3b
000000e0: 1ca9 26bb 34b4 9c3b 9111 47ba c870 a23b
000000f0: 8150 45bb 79b2 88ba f8b0 4b3b 4222 66bb
00000100: 9cd4 aaba eee6 92bb ee1b c43a 269b 4ebb
00000110: 1a4e 90bb 5761 bfb9 7a72 c9ba e768 0eba
00000120: 5892 7cba 6b87 96bb 4684 5a3b 7086 faba
00000130: b32d 2bba 27be e0b9 df68 aa3a f78d 85bb
00000140: 33dd 9cbb 3899 a5ba cb66 8fba fb98 9fbb
00000150: bdfd 303b 9397 1a3a 67cf 653b d39d 94bb
00000160: 99ad 4d3b 72b3 75bb bca6 633b 4ce5 9bbb
00000170: 9e04 0a3b a783 9a3a 696b 873a cd07 843a
00000180: c81a d03a e8d2 63b9 c2af 533b c61d 173b
00000190: 0ec2 8e3b dab3 9a3b 4fd8 8abb 9370 00ba
000001a0: 7004 833b 577c ecb9 1ef4 07bb 46a8 c4ba
000001b0: 5f4d 903a 3d66 1e3b cf38 843a 4024 4a3b
000001c0: 6074 5e3b 3d9f 3b3b f056 033b 3ed4 41bb
000001d0: dbab 58bb 9199 913b 7329 773b 1890 7a3b
000001e0: 9f1a 4abb 2ced 10ba a10b 80ba 067e 953b
000001f0: 5c6a 173b 53cc 383b 4896 9b3b d376 f03a

policy.stem.6.bias f4 [2]
0.0 0.0
00000000: 0000 0000 0000 0000

value.stem.0.weight f4 [64, 4]
-0.2132047 0.4830095 0.3164719 -0.40836298 0.26349047 0.38776073 -0.2273854 0.33071297
-0.10400027 -0.10292303 0.013924977 -0.39185464 -0.07576558 0.022402707 -0.05636031 0.3513402
0.49440575 0.06961302 0.38192987 -0.12711307 0.03765239 0.48380446 -0.30875957 -0.33933666
-0.2787955 0.49295515 -0.35481992 -0.2881291 -0.19255221 0.11708991 -0.47310868 -0.23785366
-0.027756823 0.019618444 0.37672165 0.14429262 0.06433816 -0.31317544 0.024364917 -0.17829928
0.36455372 -0.15217958 0.023757216 0.4752092 0.113072895 0.47969696 0.135862 0.13783872
-0.24745077 0.23082015 0.27999604 -0.3139747 0.30211252 -0.22692235 -0.24348599 -0.048006516
-0.36537483 0.42147812 -0.14342909 0.3250361 -0.37279993 0.45065337 0.05271032 0.1241455
0.2720513 -0.33948174 0.28333843 0.30037272 0.40487447 0.076428704 0.48519975 -0.31085268
-0.44919968 -0.08095215 -0.02822666 0.47094527 0.45856655 -0.08565932 0.4811341 -0.3098696
0.015090334 -0.099059395 -0.49179587 0.18434183 0.42926276 -0.00022249557 -0.21069369 0.26935834
-0.4285558 0.39094797 -0.41246194 -0.42036217 -0.17831036 0.16450496 0.44054133 0.44220728
0.059207194 -0.33934358 0.07769008 0.2393239 -0.03578177 -0.29514053 -0.07123039 0.38443676
0.33275482 0.41392392 -0.40286642 -0.0349681 -0.04296112 -0.17806137 0.025517764 0.23036525
0.36447844 0.10536882 -0.016623488 0.24059485 -0.16871727 0.25467208 -0.3228792 0.38053894
-0.44560227 0.111779414 -0.29938176 -0.20901534 -0.018084522 -0.08477819 0.17399596 -0.27362397
-0.2148622 -0.4780236 -0.31242874 0.34224647 0.4190412 -0.1677698 0.09780392 -0.14358796
-0.25951764 0.38173652 0.43578318 -0.23564535 0.0034703996 0.486318 0.26643047 0.023000494
0.27439982 0.40395936 -0.21183413 -0.012172042 -0.0068223514 -0.1085989 0.3189267 -0.10101417
-0.41716608 -0.25662255 0.16042231 -0.32420096 0.053591747 0.43480486 -0.4875821 0.26579374
0.13036482 0.2367956 -0.16276401 -0.24427547 0.031858295 0.09539016 -0.1698252 0.22774777
0.2651888 0.2871253 0.48201364 0.26165336 0.31181172 0.08709716 0.48001724 0.19962461
0.09203078 -0.1627214 -0.20876949 0.1256642 -0.39980552 -0.26125035 0.38391793 -0.2159565
-0.17513913 0.12939835 -0.30955532 0.4389553 0.22713917 0.4154354 0.065093525 0.4944486
-0.21507213 0.4882991 0.19176462 0.29414457 0.45375314 -0.3703999 0.47950408 0.21555017
-0.39767897 0.073213845 0.1693183 -0.4524109 0.052129295 0.27674726 -0.0067978594 0.16727436
-0.165073 0.48593104 0.36563405 -0.041240115 -0.010758635 0.075098865 -0.00027035867 0.17872833
0.107890695 0.27141798 0.23668194 -0.46312854 0.09016984 -0.023752198 -0.15518817 0.34668952
-0.23063637 -0.43561545 0.4760004 0.038264517 -0.46423814 -0.14472416 -0.3824537 0.29031646
-0.23129524 0.2966838 -0.28767985 -0.019910106 -0.31189534 -0.19890401 0.17620917 0.4473816
-0.28106 -0.15995808 -0.42538598 0.32160512 -0.2988118 0.10023307 0.17432316 -0.48957595
0.24506122 0.18786481 -0.13009256 -0.012447181 -0.03859047 -0.42375526 -0.34552294 -0.3892829
00000000: 5552 5abe 054d f73e 9b08 a23e f414 d1be
00000010: 39e8 863e 9388 c63e b8d7 68be 3653 a93e
00000020: 18fe d4bd 4fc9 d2bd 9625 643c 2ca1 c8be
00000030: fc2a 9bbd e285 b73c 12da 66bd dde2 b33e
00000040: c022 fd3e 4591 8e3d 508c c33e ee29 02be
00000050: 6439 1a3d 38b5 f73e bc15 9ebe 89bd adbe
00000060: 49be 8ebe 9e64 fc3e f5aa b5be a885 93be
00000070: 682c 45be d6cc ef3d 4d3b f2be e98f 73be
00000080: 4762 e3bc dcb6 a03c a9e1 c03e 72c1 133e
00000090: bac3 833d 8858 a0be ef98 c73c 1694 36be
000000a0: c9a6 ba3e f7d4 1bbe 7e9e c23c 9f4e f33e
000000b0: c392 e73d d79a f53e 681f 0b3e 9825 0d3e
000000c0: bc63 7dbe 1e5c 6c3e a45b 8f3e 4bc1 a0be
000000d0: 7eae 9a3e 555e 68be 6454 79be 7ba2 44bd
000000e0: 6912 bbbe fbcb d73e 13df 12be 226b a63e
000000f0: a2df bebe 0abc e63e c7e6 573d ff3f fe3d
00000100: 4f4a 8b3e 8dd0 adbe bc11 913e 74ca 993e
00000110: b54b cf3e a786 9c3d 1a6c f83e 1528 9fbe
00000120: 80fd e5be 3eca a5bd 993b e7bc bd1f f13e
00000130: 3cc9 ea3e 276e afbd 3557 f63e 3aa7 9ebe
00000140: 733d 773c a7df cabd abcc fbbe 1bc4 3c3e
00000150: 54c8 db3e b34d 69b9 16c0 57be 56e9 893e
00000160: aa6b dbbe 552a c83e 362e d3be b639 d7be
00000170: fe96 36be fd73 283e a28e e13e fe68 e23e
00000180: 3e83 723d 71be adbe fa1b 9f3d 5311 753e
00000190: e88f 12bd a91c 97be 3de1 91bd e5d4 c43e
000001a0: d75e aa3e d6ed d33e 8244 cebe b63a 0fbd
000001b0: 00f8 2fbd b855 36be a10a d13c dee4 6b3e
000001c0: eb9c ba3e 9ccb d73d fb2d 88bc 7f5e 763e
000001d0: 38c4 2cbe 6164 823e 6c50 a5be 00d6 c23e
000001e0: fb25 e4be 9bec e43d 9148 99be 1e08 56be
000001f0: fe25 94bc 30a0 adbd ff2b 323e 7118 8cbe
00000200: d604 5cbe 82bf f4be a9f6 9fbe ee3a af3e
00000210: 918c d63e d9cb 2bbe 6c4d c83d b908 13be
00000220: 7fdf 84be f872 c33e f91e df3e 044d 71be
00000230: a56f 633b acfe f83e 9369 883e 886b bc3c
00000240: 227e 8c3e c3d3 ce3e 0ceb 58be 3f6d 47bc
00000250: 088e dfbb 1a69 debd 5c4a a33e 84e0 cebd
00000260: cb96 d5be 0864 83be bf45 243e abfd a5be
00000270: 0583 5b3d be9e de3e 5ca4 f9be 1e16 883e
00000280: 5b7e 053e 8c7a 723e 9cab 26be 5923 7abe
00000290: d87d 023d eb5b c33d a8e6 2dbe b636 693e
000002a0: d4c6 873e 1602 933e 7eca f63e 6ef7 853e
000002b0: c9a5 9f3e ff5f b23d d2c4 f53e 656a 4c3e
000002c0: a27a bc3d 70a0 26be abc7 55be 1eae 003e
000002d0: 4fb3 ccbe 9bc2 85be e490 c43e b323 5dbe
000002e0: ac57 33be 0081 043e 097e 9ebe c0be e03e
000002f0: 2c97 683e f3b3 d43e c14f 853d 5e28 fd3e
00000300: de3b 5cbe 5702 fa3e f25d 443e 1e9a 963e
00000310: 5552 e83e 0ea5 bdbe 8f81 f53e 2fb9 5c3e
00000320: 949c cbbe 24f1 953d c761 2d3e 67a2 e7be
00000330: 8785 553d d1b1 8d3e 94c0 debb f849 2b3e
00000340: e608 29be f4cb f83e 6334 bb3e 65eb 28bd
00000350: fc44 30bc 6fcd 993d edbe 8db9 8f04 373e
00000360: ccf5 dc3d 4cf7 8a3e c05c 723e 2f1f edbe
00000370: f7aa b83d f893 c2bc a6e9 1ebe 4a81 b13e
00000380: f12b 6cbe fd08 dfbe 53b6 f33e 41bb 1c3d
00000390: 9fb0 edbe 9232 14be f9d0 c3be 5ca4 943e
000003a0: a9d8 6cbe f0e6 973e c64a 93be 851a a3bc
000003b0: bfb0 9fbe 7ead 4bbe 2d70 343e 330f e53e
000003c0: 19e7 8fbe 0dcc 23be 31cc d9be 6da9 a43e
000003d0: dcfd 98be ff46 cd3d c581 323e b3a9 fabe
000003e0: 54f1 7a3e a25f 403e fc36 05be 43ef 4bbc
000003f0: 0a11 1ebd 73f6 d8be 62e8 b0be 1750 c7be

value.stem.0.bias f4 [64]
0.0 0.0 0.0 0.0 0.0 0.0 0.0 0.0
0.0 0.0 0.0 0.0 0.0 0.0 0.0 0.0
0.0 0.0 0.0 0.0 0.0 0.0 0.0 0.0
0.0 0.0 0.0 0.0 0.0 0.0 0.0 0.0
0.0 0.0 0.0 0.0 0.0 0.0 0.0 0.0
0.0 0.0 0.0 0.0 0.0 0.0 0.0 0.0
0.0 0.0 0.0 0.0 0.0 0.0 0.0 0.0
0.0 0.0 0.0 0.0 0.0 0.0 0.0 0.0
00000000: 0000 0000 0000 0000 0000 0000 0000 0000
00000010: 0000 0000 0000 0000 0000 0000 0000 0000
00000020: 0000 0000 0000 0000 0000 0000 0000 0000
00000030: 0000 0000 0000 0000 0000 0000 0000 0000
00000040: 0000 0000 0000 0000 0000 0000 0000 0000
00000050: 0000 0000 0000 0000 0000 0000 0000 0000
00000060: 0000 0000 0000 0000 0000 0000 0000 0000
00000070: 0000 0000 0000 0000 0000 0000 0000 0000
00000080: 0000 0000 0000 0000 0000 0000 0000 0000
00000090: 0000 0000 0000 0000 0000 0000 0000 0000
000000a0: 0000 0000 0000 0000 0000 0000 0000 0000
000000b0: 0000 0000 0000 0000 0000 0000 0000 0000
000000c0: 0000 0000 0000 0000 0000 0000 0000 0000
000000d0: 0000 0000 0000 0000 0000 0000 0000 0000
000000e0: 0000 0000 0000 0000 0000 0000 0000 0000
000000f0: 0000 0000 0000 0000 0000 0000 0000 0000

value.stem.2.weight f4 [64, 64]
-0.24409916 -0.29340833 0.113871686 0.28402916 -0.2533482 0.08585773 0.31591058 -0.08156129
0.04370102 0.0602696 0.06678148 0.24505274 0.27993605 -0.2483783 0.037469815 -0.33618012
0.14992245 -0.19003439 0.29815748 0.18101782 -0.20188425 0.012400465 0.17673782 -0.1224489
0.3375105 0.24845685 0.108412065 -0.08984255 -0.055787943 -0.24071321 -0.24138743 0.13672855
-0.041085694 -0.3284733 -0.15889451 0.09361195 -0.09212089 -0.3009049 0.23047072 0.21450083
0.24243319 -0.26998025 -0.2670684 0.082995184 0.16677184 0.24765697 -0.19315761 0.23236704
-0.21507014 0.32228655 0.05313007 0.24991432 -0.05957584 -0.04255731 0.046695445 0.30938822
0.28934276 -0.21953142 0.053959593 0.32251027 0.25450507 -0.225723 0.14743488 -0.13874786
0.1271859 0.1262903 0.26423204 -0.28174245 -0.18590495 -0.094793774 0.2782617 -0.059031516
-0.23008001 0.19362679 -0.006325151 0.02149378 0.29034278 0.26003382 -0.0729079 0.1936193
0.32614833 0.29394862 0.13674374 -0.16781463 -0.04177257 0.045339283 -0.12765507 -0.23889711
0.35113758 0.1651572 0.34557003 0.19163635 -0.08812703 0.0861501 -0.34761092 0.2957171
0.08063696 0.3232618 -0.2630408 0.009231093 0.35477045 0.2759472 0.25391766 -0.21451959
0.29597187 0.22574335 -0.03658683 -0.06697923 0.096561596 -0.12811203 0.17708607 0.12941533
0.13977198 0.22252925 0.25178304 0.20570132 -0.07511987 0.32526803 0.30675295 -0.038042445
-0.2079886 -0.17047289 -0.041037172 -0.25675926 0.239056 -0.3174201 -0.040857192 -0.11762969
0.25879896 -0.19912986 -0.14633049 0.25251403 -0.12336634 -0.15066318 -0.3269989 0.24987091
-0.33531305 0.21273658 0.34428102 0.20032592 -0.11315384 -0.14496426 -0.17789353 -0.29869896
0.11004899 0.17065626 -0.3097375 -0.2995007 -0.1518068 0.20750743 0.3338164 -0.18754962
-0.26013595 -0.077820756 0.18042064 -0.3139982 0.32521075 -0.1527052 -0.0508812 0.2960056
-0.20272216 0.26402694 -0.044736154 0.24262673 0.29758847 -0.20952974 -0.17748329 -0.32602683
0.22762981 -0.06556207 0.32225823 -0.15047245 -0.23507795 -0.33881718 -0.32916832 -0.27488482
0.26411685 0.32483023 0.099869825 -0.3129997 0.11342084 -0.3597305 0.17982976 0.0032873647
0.21652344 -0.106767304 0.26307553 -0.35252455 -0.34209788 -0.09203654 0.14777346 -0.0021700256
-0.11057507 -0.069946125 -0.1344743 -0.267986 0.20363002 -0.167558 0.15444244 -0.07802009
-0.150745 -0.063698485 -0.028462062 0.017106066 -0.35512105 -0.33569363 -0.24645002 -0.060288444
0.09664229 -0.23951314 0.14554454 -0.34865728 -0.028095393 -0.29522207 -0.1401383 0.08436004
-0.33466643 0.017692115 -0.2888789 -0.2513218 -0.22004056 0.1516745 -0.11447142 0.30252728
0.22909601 0.20367281 -0.19641241 -0.24084333 0.34857374 -0.34404147 -0.095085934 0.18795715
0.15528774 0.0079091275 0.00045725954 -0.08925547 0.16807273 -0.023940096 -0.25745794 0.31828654
-0.18306749 0.018096292 -0.19975127 -0.1652683 0.047078848 -0.0345548 0.14187756 -0.26148263
-0.24727648 -0.118716836 -0.22857973 -0.26455194 0.1487094 0.24998318 0.2858433 -0.21755655
00000000: 21f5 79be 9e39 96be 8f35 e93d 456c 913e
00000010: dbb6 81be 2dd6 af3d 08bf a13e 9b09 a7bd
00000020: d7ff 323d 42dd 763d bbc4 883d 1bef 7a3e
00000030: c753 8f3e e256 7ebe f379 193d cd1f acbe
00000040: 4585 193e 6098 42be 19a8 983e bc5c 393e
00000050: bfba 4ebe 522b 4b3c c2fa 343e 7dc6 fabd
00000060: 2dce ac3e 796b 7e3e 2507 de3d 5fff b7bd
00000070: e681 64bd 867d 76be 442e 77be 9202 0c3e
00000080: 7949 28bd a72d a8be 3eb5 22be 9fb7 bf3d
00000090: e1a9 bcbd 3510 9abe 8400 6c3e 1ba6 5b3e
000000a0: 6840 783e da3a 8abe 30bd 88be 61f9 a93d
000000b0: 3dc6 2a3e ca99 7d3e 1ccb 45be a0f1 6d3e
000000c0: 593b 5cbe be02 a53e eb9e 593d 8ae9 7f3e
000000d0: cc05 74bd 9350 2ebd b943 3f3d 2268 9e3e
000000e0: bc24 943e d8cc 60be bc04 5d3d 1120 a53e
000000f0: 7d4e 823e ee23 67be 2bf9 163e eb13 0ebe
00000100: 053d 023e 3f52 013e 6c49 873e 8c40 90be
00000110: de5d 3ebe 3d23 c2bd 5178 8e3e 08cb 71bd
00000120: 189a 6bbe 1a46 463e 3643 cfbb b913 b03c
00000130: cfa7 943e 2723 853e bd50 95bd 2344 463e
00000140: eafc a63e 6f80 963e 8d06 0c3e 99d7 2bbe
00000150: b719 2bbd afb5 393d 03b8 02be 72a1 74be
00000160: 4ec8 b33e f81e 293e 8eee b03e 523c 443e
00000170: f27b b4bd 776f b03d 0ffa b1be 3b68 973e
00000180: fe24 a53d 9282 a53e 49ad 86be 033e 173c
00000190: 79a4 b53e f448 8d3e 7f01 823e 06ab 5bbe
000001a0: a089 973e 4429 673e 12dc 15bd 682c 89bd
000001b0: 16c2 c53d cd2f 03be 0d56 353e 7485 043e
000001c0: 6320 0f3e b5de 633e b5e9 803e 5ea3 523e
000001d0: 72d8 99bd 8889 a63e b90e 9d3e 65d2 1bbd
000001e0: f7fa 54be 7290 2ebe 9816 28bd f375 83be
000001f0: 19cb 743e e384 a2be df59 27bd d6e7 f0bd
00000200: 4c81 843e b3e8 4bbe a9d7 15be 8549 813e
00000210: 7ea7 fcbd 7347 1abe 666c a7be 29de 7f3e
00000220: 27ae abbe 9ed7 593e 9a45 b03e 3d22 4d3e
00000230: 33bd e7bd 8371 14be b929 36be 12ef 98be
00000240: 5d61 e13d 84c0 2e3e ea95 9ebe 2858 99be
00000250: 3e73 1bbe d47c 543e fce9 aa3e 020d 40be
00000260: 8a30 85be 7d60 9fbd 30c0 383e 5fc4 a0be
00000270: 0682 a63e c05e 1cbe ce68 50bd 0c8e 973e
00000280: 6696 4fbe 8a2e 873e 423d 37bd 2473 783e
00000290: 845d 983e f78e 56be 2ebe 35be fdec a6be
000002a0: ca17 693e 6845 86bd 08ff a43e 7315 1abe
000002b0: 46b8 70be 7279 adbe c088 a8be b4bd 8cbe
000002c0: 533a 873e 2650 a63e 8d88 cc3d 7f41 a0be
000002d0: 2f49 e83d 992e b8be 4b25 383e d470 573b
000002e0: 52b8 5d3e d1a8 dabd d6b1 863e 197e b4be
000002f0: 7427 afbe a77d bcbd ed51 173e fd36 0ebb
00000300: 2f75 e2bd ea3f 8fbd a2b3 09be 7635 89be
00000310: 6384 503e 5394 2bbe 2926 1e3e ffc8 9fbd
00000320: e65c 1abe 5a74 82bd 4529 e9bc 0522 8c3c
00000330: 6dd2 b5be 09e0 abbe 655d 7cbe 04f1 76bd
00000340: 65ec c53d ef42 75be a109 153e 3583 b2be
00000350: 4f28 e6bc 5927 97be 6a80 0fbe f5c4 ac3d
00000360: 6659 abbe 0eef 903c efe7 93be 40ad 80be
00000370: 5052 61be 8f50 1b3e fe6f eabd dbe4 9a3e
00000380: 2598 6a3e 9b8f 503e 5620 49be a29f 76be
00000390: 4278 b23e 3426 b0be 6abc c2bd d777 403e
000003a0: c003 1f3e 4995 013c 56bc ef39 92cb b6bd
000003b0: 421b 2c3e 051e c4bc 87d1 83be 74f6 a23e
000003c0: 0b76 3bbe ad3e 943c 998b 4cbe 183c 29be
000003d0: c0d5 403d 5589 0dbd 5a48 113e 0de1 85be
000003e0: 0c36 7dbe d021 f3bd ce10 6abe 5a73 87be
000003f0: 4747 183e 97fb 7f3e 0e5a 923e 25c7 5ebe

value.stem.2.bias f4 [64]
0.0 0.0 0.0 0.0 0.0 0.0 0.0 0.0
0.0 0.0 0.0 0.0 0.0 0.0 0.0 0.0
0.0 0.0 0.0 0.0 0.0 0.0 0.0 0.0
0.0 0.0 0.0 0.0 0.0 0.0 0.0 0.0
0.0 0.0 0.0 0.0 0.0 0.0 0.0 0.0
0.0 0.0 0.0 0.0 0.0 0.0 0.0 0.0
0.0 0.0 0.0 0.0 0.0 0.0 0.0 0.0
0.0 0.0 0.0 0.0 0.0 0.0 0.0 0.0
00000000: 0000 0000 0000 0000 0000 0000 0000 0000
00000010: 0000 0000 0000 0000 0000 0000 0000 0000
00000020: 0000 0000 0000 0000 0000 0000 0000 0000
00000030: 0000 0000 0000 0000 0000 0000 0000 0000
00000040: 0000 0000 0000 0000 0000 0000 0000 0000
00000050: 0000 0000 0000 0000 0000 0000 0000 0000
00000060: 0000 0000 0000 0000 0000 0000 0000 0000
00000070: 0000 0000 0000 0000 0000 0000 0000 0000
00000080: 0000 0000 0000 0000 0000 0000 0000 0000
00000090: 0000 0000 0000 0000 0000 0000 0000 0000
000000a0: 0000 0000 0000 0000 0000 0000 0000 0000
000000b0: 0000 0000 0000 0000 0000 0000 0000 0000
000000c0: 0000 0000 0000 0000 0000 0000 0000 0000
000000d0: 0000 0000 0000 0000 0000 0000 0000 0000
000000e0: 0000 0000 0000 0000 0000 0000 0000 0000
000000f0: 0000 0000 0000 0000 0000 0000 0000 0000

value.stem.4.weight f4 [64, 64]
-0.24409916 -0.29340833 0.113871686 0.28402916 -0.2533482 0.08585773 0.31591058 -0.08156129
0.04370102 0.0602696 0.06678148 0.24505274 0.27993605 -0.2483783 0.037469815 -0.33618012
0.14992245 -0.19003439 0.29815748 0.18101782 -0.20188425 0.012400465 0.17673782 -0.1224489
0.3375105 0.24845685 0.108412065 -0.08984255 -0.055787943 -0.24071321 -0.24138743 0.13672855
-0.041085694 -0.3284733 -0.15889451 0.09361195 -0.09212089 -0.3009049 0.23047072 0.21450083
0.24243319 -0.26998025 -0.2670684 0.082995184 0.16677184 0.24765697 -0.19315761 0.23236704
-0.21507014 0.32228655 0.05313007 0.24991432 -0.05957584 -0.04255731 0.046695445 0.30938822
0.28934276 -0.21953142 0.053959593 0.32251027 0.25450507 -0.225723 0.14743488 -0.13874786
0.1271859 0.1262903 0.26423204 -0.28174245 -0.18590495 -0.094793774 0.2782617 -0.059031516
-0.23008001 0.19362679 -0.006325151 0.02149378 0.29034278 0.26003382 -0.0729079 0.1936193
0.32614833 0.29394862 0.13674374 -0.16781463 -0.04177257 0.045339283 -0.12765507 -0.23889711
0.35113758 0.1651572 0.34557003 0.19163635 -0.08812703 0.0861501 -0.34761092 0.2957171
0.08063696 0.3232618 -0.2630408 0.009231093 0.35477045 0.2759472 0.25391766 -0.21451959
0.29597187 0.22574335 -0.03658683 -0.06697923 0.096561596 -0.12811203 0.17708607 0.12941533
0.13977198 0.22252925 0.25178304 0.20570132 -0.07511987 0.32526803 0.30675295 -0.038042445
-0.2079886 -0.17047289 -0.041037172 -0.25675926 0.239056 -0.3174201 -0.040857192 -0.11762969
0.25879896 -0.19912986 -0.14633049 0.25251403 -0.12336634 -0.15066318 -0.3269989 0.24987091
-0.33531305 0.21273658 0.34428102 0.20032592 -0.11315384 -0.14496426 -0.17789353 -0.29869896
0.11004899 0.17065626 -0.3097375 -0.2995007 -0.1518068 0.20750743 0.3338164 -0.18754962
-0.26013595 -0.077820756 0.18042064 -0.3139982 0.32521075 -0.1527052 -0.0508812 0.2960056
-0.20272216 0.26402694 -0.044736154 0.24262673 0.29758847 -0.20952974 -0.17748329 -0.32602683
0.22762981 -0.06556207 0.32225823 -0.15047245 -0.23507795 -0.33881718 -0.32916832 -0.27488482
0.26411685 0.32483023 0.099869825 -0.3129997 0.11342084 -0.3597305 0.17982976 0.0032873647
0.21652344 -0.106767304 0.26307553 -0.35252455 -0.34209788 -0.09203654 0.14777346 -0.0021700256
-0.11057507 -0.069946125 -0.1344743 -0.267986 0.20363002 -0.167558 0.15444244 -0.07802009
-0.150745 -0.063698485 -0.028462062 0.017106066 -0.35512105 -0.33569363 -0.24645002 -0.060288444
0.09664229 -0.23951314 0.14554454 -0.34865728 -0.028095393 -0.29522207 -0.1401383 0.08436004
-0.33466643 0.017692115 -0.2888789 -0.2513218 -0.22004056 0.1516745 -0.11447142 0.30252728
0.22909601 0.20367281 -0.19641241 -0.24084333 0.34857374 -0.34404147 -0.095085934 0.18795715
0.15528774 0.0079091275 0.00045725954 -0.08925547 0.16807273 -0.023940096 -0.25745794 0.31828654
-0.18306749 0.018096292 -0.19975127 -0.1652683 0.047078848 -0.0345548 0.14187756 -0.26148263
-0.24727648 -0.118716836 -0.22857973 -0.26455194 0.1487094 0.24998318 0.2858433 -0.21755655
00000000: 21f5 79be 9e39 96be 8f35 e93d 456c 913e
00000010: dbb6 81be 2dd6 af3d 08bf a13e 9b09 a7bd
00000020: d7ff 323d 42dd 763d bbc4 883d 1bef 7a3e
00000030: c753 8f3e e256 7ebe f379 193d cd1f acbe
00000040: 4585 193e 6098 42be 19a8 983e bc5c 393e
00000050: bfba 4ebe 522b 4b3c c2fa 343e 7dc6 fabd
00000060: 2dce ac3e 796b 7e3e 2507 de3d 5fff b7bd
00000070: e681 64bd 867d 76be 442e 77be 9202 0c3e
00000080: 7949 28bd a72d a8be 3eb5 22be 9fb7 bf3d
00000090: e1a9 bcbd 3510 9abe 8400 6c3e 1ba6 5b3e
000000a0: 6840 783e da3a 8abe 30bd 88be 61f9 a93d
000000b0: 3dc6 2a3e ca99 7d3e 1ccb 45be a0f1 6d3e
000000c0: 593b 5cbe be02 a53e eb9e 593d 8ae9 7f3e
000000d0: cc05 74bd 9350 2ebd b943 3f3d 2268 9e3e
000000e0: bc24 943e d8cc 60be bc04 5d3d 1120 a53e
000000f0: 7d4e 823e ee23 67be 2bf9 163e eb13 0ebe
00000100: 053d 023e 3f52 013e 6c49 873e 8c40 90be
00000110: de5d 3ebe 3d23 c2bd 5178 8e3e 08cb 71bd
00000120: 189a 6bbe 1a46 463e 3643 cfbb b913 b03c
00000130: cfa7 943e 2723 853e bd50 95bd 2344 463e
00000140: eafc a63e 6f80 963e 8d06 0c3e 99d7 2bbe
00000150: b719 2bbd afb5 393d 03b8 02be 72a1 74be
00000160: 4ec8 b33e f81e 293e 8eee b03e 523c 443e
00000170: f27b b4bd 776f b03d 0ffa b1be 3b68 973e
00000180: fe24 a53d 9282 a53e 49ad 86be 033e 173c
00000190: 79a4 b53e f448 8d3e 7f01 823e 06ab 5bbe
000001a0: a089 973e 4429 673e 12dc 15bd 682c 89bd
000001b0: 16c2 c53d cd2f 03be 0d56 353e 7485 043e
000001c0: 6320 0f3e b5de 633e b5e9 803e 5ea3 523e
000001d0: 72d8 99bd 8889 a63e b90e 9d3e 65d2 1bbd
000001e0: f7fa 54be 7290 2ebe 9816 28bd f375 83be
000001f0: 19cb 743e e384 a2be df59 27bd d6e7 f0bd
00000200: 4c81 843e b3e8 4bbe a9d7 15be 8549 813e
00000210: 7ea7 fcbd 7347 1abe 666c a7be 29de 7f3e
00000220: 27ae abbe 9ed7 593e 9a45 b03e 3d22 4d3e
00000230: 33bd e7bd 8371 14be b929 36be 12ef 98be
00000240: 5d61 e13d 84c0 2e3e ea95 9ebe 2858 99be
00000250: 3e73 1bbe d47c 543e fce9 aa3e 020d 40be
00000260: 8a30 85be 7d60 9fbd 30c0 383e 5fc4 a0be
00000270: 0682 a63e c05e 1cbe ce68 50bd 0c8e 973e
00000280: 6696 4fbe 8a2e 873e 423d 37bd 2473 783e
00000290: 845d 983e f78e 56be 2ebe 35be fdec a6be
000002a0: ca17 693e 6845 86bd 08ff a43e 7315 1abe
000002b0: 46b8 70be 7279 adbe c088 a8be b4bd 8cbe
000002c0: 533a 873e 2650 a63e 8d88 cc3d 7f41 a0be
000002d0: 2f49 e83d 992e b8be 4b25 383e d470 573b
000002e0: 52b8 5d3e d1a8 dabd d6b1 863e 197e b4be
000002f0: 7427 afbe a77d bcbd ed51 173e fd36 0ebb
00000300: 2f75 e2bd ea3f 8fbd a2b3 09be 7635 89be
00000310: 6384 503e 5394 2bbe 2926 1e3e ffc8 9fbd
00000320: e65c 1abe 5a74 82bd 4529 e9bc 0522 8c3c
00000330: 6dd2 b5be 09e0 abbe 655d 7cbe 04f1 76bd
00000340: 65ec c53d ef42 75be a109 153e 3583 b2be
00000350: 4f28 e6bc 5927 97be 6a80 0fbe f5c4 ac3d
00000360: 6659 abbe 0eef 903c efe7 93be 40ad 80be
00000370: 5052 61be 8f50 1b3e fe6f eabd dbe4 9a3e
00000380: 2598 6a3e 9b8f 503e 5620 49be a29f 76be
00000390: 4278 b23e 3426 b0be 6abc c2bd d777 403e
000003a0: c003 1f3e 4995 013c 56bc ef39 92cb b6bd
000003b0: 421b 2c3e 051e c4bc 87d1 83be 74f6 a23e
000003c0: 0b76 3bbe ad3e 943c 998b 4cbe 183c 29be
000003d0: c0d5 403d 5589 0dbd 5a48 113e 0de1 85be
000003e0: 0c36 7dbe d021 f3bd ce10 6abe 5a73 87be
000003f0: 4747 183e 97fb 7f3e 0e5a 923e 25c7 5ebe

value.stem.4.bias f4 [64]
0.0 0.0 0.0 0.0 0.0 0.0 0.0 0.0
0.0 0.0 0.0 0.0 0.0 0.0 0.0 0.0
0.0 0.0 0.0 0.0 0.0 0.0 0.0 0.0
0.0 0.0 0.0 0.0 0.0 0.0 0.0 0.0
0.0 0.0 0.0 0.0 0.0 0.0 0.0 0.0
0.0 0.0 0.0 0.0 0.0 0.0 0.0 0.0
0.0 0.0 0.0 0.0 0.0 0.0 0.0 0.0
0.0 0.0 0.0 0.0 0.0 0.0 0.0 0.0
00000000: 0000 0000 0000 0000 0000 0000 0000 0000
00000010: 0000 0000 0000 0000 0000 0000 0000 0000
00000020: 0000 0000 0000 0000 0000 0000 0000 0000
00000030: 0000 0000 0000 0000 0000 0000 0000 0000
00000040: 0000 0000 0000 0000 0000 0000 0000 0000
00000050: 0000 0000 0000 0000 0000 0000 0000 0000
00000060: 0000 0000 0000 0000 0000 0000 0000 0000
00000070: 0000 0000 0000 0000 0000 0000 0000 0000
00000080: 0000 0000 0000 0000 0000 0000 0000 0000
00000090: 0000 0000 0000 0000 0000 0000 0000 0000
000000a0: 0000 0000 0000 0000 0000 0000 0000 0000
000000b0: 0000 0000 0000 0000 0000 0000 0000 0000
000000c0: 0000 0000 0000 0000 0000 0000 0000 0000
000000d0: 0000 0000 0000 0000 0000 0000 0000 0000
000000e0: 0000 0000 0000 0000 0000 0000 0000 0000
000000f0: 0000 0000 0000 0000 0000 0000 0000 0000

value.stem.6.weight f4 [1, 64]
-0.004363826 -0.004453345 -0.003547147 -0.0024640518 -0.0022646363 0.005049437 0.0031239802 0.0017440316
-0.0050017694 -0.004668554 -0.0008398705 0.0019082609 -0.0037647337 -0.00023882884 -0.0011972868 8.556593e-06
0.004809585 0.0020204068 -0.00071129703 0.004920217 0.0022279231 -0.0022784942 -0.001027865 0.0005800941
-0.00048855215 -0.0022724427 -0.0049876557 0.00032250356 0.0035115085 0.00038756867 0.0008022631 0.00063638773
-7.577127e-05 0.0037450942 0.004409686 0.003965503 0.002023294 -0.0044411793 0.0004947304 0.0021584195
0.004396426 0.001504817 -0.0030702455 -0.0042870007 0.0018889667 0.0033607255 0.0014268039 -0.00057087955
-0.0024784172 7.185425e-05 -0.0028736612 0.0026500947 -0.0023185927 -0.0014940916 0.0026396157 0.001504572
-0.003883093 0.004793185 0.004500593 -0.0028569698 0.000108895394 0.0025636759 0.0028549992 -0.0010048724
00000000: 6dfe 8ebb 5eed 91bb 4077 68bb ee7b 21bb
00000010: 4b6a 14bb bf75 a53b b1bb 4c3b fd97 e43a
00000020: e2e5 a3bb abfa 98bb c12a 5cba 9c1e fa3a
00000030: c0b9 76bb 216e 7ab9 47ee 9cba 498e 0f37
00000040: b999 9d3b cd68 043b 5676 3aba c639 a13b
00000050: 5902 123b ca52 15bb 6db9 86ba 7511 183a
00000060: 2e12 00ba 43ed 14bb 7d6f a3bb b215 a939
00000070: 5621 663b 9632 cb39 f74e 523a 42d3 263a
00000080: 64e7 9eb8 4170 753b 217f 903b 0df1 813b
00000090: 3e99 043b 5087 91bb ccb0 013a 4574 0d3b
000000a0: e50f 903b 483d c53a 2c36 49bb f879 8cbb
000000b0: 3497 f73a 9e3f 5c3b 9803 bb3a 14a7 15ba
000000c0: f16c 22bb 75b0 9638 0954 3cbb 36ad 2d3b
000000d0: 88f3 17bb 65d5 c3ba 67fd 2c3b 0f35 c53a
000000e0: 7d7b 7ebb 2610 9d3b b679 933b 003c 3bbb
000000f0: c55e e438 5803 283b f01a 3b3b ecb5 83ba
