weights/best_one_optim_suggestions_2hidden_200ep.pth (torch, 40407 bytes, 15 tensors)

policy.stem.0.weight f4 [64, 4]
-0.12129655 -0.60005206 0.35037363 -0.7834839 -0.098778024 -0.1910231 -0.26998258 -0.010551356
-0.077461325 -0.36175877 0.008370914 0.7413312 -0.37537062 0.4573983 0.36302808 0.45438167
-0.054810368 0.11738666 0.42620814 -0.5589681 0.18402745 -0.36380944 -0.49553898 -0.67800194
-0.2733518 0.29303327 -0.31746408 0.43394864 0.19610904 -0.45531622 -0.15026787 0.62977576
0.41449878 0.4332046 0.12140541 0.5023268 0.40007418 0.07802099 -0.2665491 -0.882819
0.4049924 0.43920842 0.24961741 0.52448785 -0.36904183 0.5797128 0.02358882 0.2558994
0.39627698 -0.18266393 0.26490116 -0.24560545 -0.2781589 -0.5383808 0.34374738 -0.5082002
-0.3741224 -0.20670514 -0.2740071 -0.6227912 0.3962532 0.2965405 -0.18587072 0.03790212
-0.014809909 -0.547167 -0.14936005 -0.5551279 0.16378744 0.025426848 -0.18482162 0.101130486
0.015661962 0.08279762 -0.32568172 0.44100007 -0.23190802 0.48983955 -0.3997188 0.4259358
-0.06864906 0.0351586 0.3674134 0.026283884 -0.33775428 0.19948979 0.37875563 -0.348961
-0.10461023 0.12460087 0.34857693 -0.52298677 -0.16323176 0.19588315 0.005240419 -0.8733704
0.39058962 -0.3738691 0.045069706 -0.13702072 0.06397047 -0.09932608 -0.26445514 0.07630836
-0.18387881 0.23072834 -0.84224755 -0.3407316 -0.30658665 -0.32639614 0.2541829 -0.2605753
0.39129257 -0.07734522 0.19879954 0.8405461 0.13989604 0.03231295 -0.18487914 0.2507607
-0.28926423 0.4164709 0.17865175 0.3924164 0.3120333 0.17399208 0.3934253 -0.56184983
0.12855752 -0.2639997 0.1861067 0.76867205 0.21469384 -0.3919861 -0.83567685 -0.35622373
0.10038083 -0.50058436 0.29873803 -0.33137494 0.27534312 0.0016332644 0.16055267 -0.63830173
0.075618386 0.4378438 0.48710698 0.24251077 0.2085299 0.43527043 0.51523775 0.80999064
-0.18218803 -0.26379558 -0.21906702 -0.5346927 0.35918677 0.23152015 0.14463268 0.3782728
0.007663194 0.2453364 -0.6370131 -0.6974781 0.15937951 -0.50805813 -0.4254351 -0.0065814103
-0.47900584 0.37038583 -0.5337851 0.5227091 -0.26671886 0.38284406 0.1784743 0.70586026
0.03370943 -0.20167983 0.41698062 -0.5306255 0.033364944 0.21318793 0.4730461 0.4691794
-0.111595795 0.5580767 0.37744826 0.36139008 0.09496935 -0.01258315 -0.6829836 -0.6782576
-0.06335658 0.02996998 0.53896576 0.116594985 -0.013650757 -0.49690777 0.38880163 -0.40755585
-0.11694348 -0.0578739 -0.3208821 0.42931116 0.09997173 -0.050647408 0.07663324 0.60933983
0.02302411 -0.10439439 0.071036175 -0.56071156 -0.3549509 -0.50257444 -0.0007889206 -0.4949228
-0.28281754 0.34160358 -0.7669911 -0.60536134 0.37025166 0.30313358 0.5164892 -0.031247295
-0.1726835 0.3209361 0.29470915 -0.2561461 0.035214778 -0.013468973 -0.048509732 0.7165383
-0.09807899 -0.39316115 -0.66919297 -0.50837547 -0.22643046 0.4044388 -0.35716048 -0.5283241
0.0983887 0.17043614 0.35329095 -0.46870804 0.08676966 -0.29521424 -0.04301219 0.278315
0.3460782 0.11256391 -0.12643571 -0.39130852 -0.3910387 0.031669524 0.39062348 -0.6302427
00000000: 536a f8bd 039d 19bf 2c64 b33e 6792 48bf
00000010: 224c cabd 8f9b 43be 283b 8abe 98df 2cbc
00000020: 0ba4 9ebd 7238 b9be 2826 093c e2c7 3d3f
00000030: 9430 c0be 1c30 ea3e d1de b93e b7a4 e83e
00000040: d680 60bd 6b68 f03d f437 da3e 8918 0fbf
00000050: b171 3c3e 3b45 babe 49b7 fdbe 8991 2dbf
00000060: c4f4 8bbe 7508 963e a78a a2be 842e de3e
00000070: cfd0 483e 351f e9be d2df 19be fc38 213f
00000080: 2f39 d43e fecc dd3e 66a3 f83d 7d98 003f
00000090: 86d6 cc3e 78c9 9f3d 2079 88be 6d00 62bf
000000a0: 2a5b cf3e eddf e03e b59b 7f3e d644 063f
000000b0: 0df3 bcbe 0f68 143f 573d c13c 3f05 833e
000000c0: d1e4 ca3e 410c 3bbe 20a1 873e ff7f 7bbe
000000d0: d86a 8ebe 53d3 09bf a8ff af3e 6919 02bf
000000e0: f98c bfbe 83aa 53be a94a 8cbe 3e6f 1fbf
000000f0: b3e1 ca3e 28d4 973e e554 3ebe 413f 1b3d
00000100: 43a5 72bc 2313 0cbf d7f1 18be dd1c 0ebf
00000110: e5b7 273e f74b d03c e141 3dbe 801d cf3d
00000120: 844d 803c cc91 a93d c1bf a6be c3ca e13e
00000130: 4c79 6dbe 40cc fa3e f1a7 ccbe 4214 da3e
00000140: e197 8cbd 7702 103d 9c1d bc3e 4d51 d73c
00000150: 21ee acbe 0d47 4c3e 42ec c13e 04ab b2be
00000160: e33d d6bd be2e ff3d ad78 b23e 76e2 05bf
00000170: 3a26 27be 9895 483e d2b7 ab3b 3495 5fbf
00000180: 5dfb c73e c56b bfbe 039b 383d 294f 0cbe
00000190: f302 833d 796b cbbd aa66 87be 8f47 9c3d
000001a0: ba4a 3cbe 0d44 6c3e 899d 57bf 5f74 aebe
000001b0: edf8 9cbe 651d a7be 4324 823e 206a 85be
000001c0: 8057 c83e 2c67 9ebd 1b92 4b3e 072e 573f
000001d0: e840 0f3e 955a 043d f550 3dbe b563 803e
000001e0: 711a 94be ac3b d53e 7cf0 363e cdea c83e
000001f0: d4c2 9f3e fb2a 323e 0a6f c93e 64d5 0fbf
00000200: 95a4 033e f82a 87be c192 3e3e b1c7 443f
00000210: b4d8 5b3e 67b2 c8be ebee 55bf f562 b6be
00000220: 7794 cd3d 4c26 00bf 31f4 983e faa9 a9be
00000230: c6f9 8c3e 4213 d63a eb67 243e be67 23bf
00000240: d0dd 9a3d 102d e03e 1666 f93e be54 783e
00000250: dd88 553e c4db de3e 9fe6 033f 8c5b 4f3f
00000260: 808f 3abe 3710 87be 1b53 60be 9fe1 08bf
00000270: 54e7 b73e 9e13 6d3e 971a 143e f9ac c13e
00000280: 881b fb3b 7739 7b3e 4a13 23bf ed8d 32bf
00000290: 6234 233e 1910 02bf a1d2 d9be dfa8 d7bb
000002a0: 4140 f5be 36a3 bd3e 24a6 08bf 43d0 053f
000002b0: 608f 88be 2304 c43e f8c1 363e 42b3 343f
000002c0: e612 0a3d 2885 4ebe 7c7e d53e 13d7 07bf
000002d0: aea9 083d f04d 5a3e 1933 f23e 4838 f03e
000002e0: 568c e4bd 1dde 0e3f e640 c13e 1f08 b93e
000002f0: 4a7f c23d 8e29 4ebc 03d8 2ebf 4aa2 2dbf
00000300: 18c1 81bd 9a83 f53c a9f9 093f 5ac9 ee3d
00000310: 6da7 5fbc b26a febe 0211 c73e 29ab d0be
00000320: 1080 efbd 2f0d 6dbd a94a a4be acce db3e
00000330: fabd cc3d a873 4fbd e3f1 9c3d b2fd 1b3f
00000340: 0f9d bc3c bacc d5bd 6a7b 913d cb8a 0fbf
00000350: 20bc b5be b8a8 00bf 91cf 4eba 8566 fdbe
00000360: 76cd 90be aae6 ae3e 8759 44bf f6f8 1abf
00000370: a091 bd3e 5334 9b3e a338 043f 54fa ffbc
00000380: f2d3 30be bd51 a43e 1ee4 963e 9525 83be
00000390: 5f3d 103d f8ac 5cbc 24b2 46bd 0e6f 373f
000003a0: a3dd c8bd 6b4c c9be 3b50 2bbf e524 02bf
000003b0: 63dd 67be 9a12 cf3e bddd b6be 4040 07bf
000003c0: 0480 c93d d086 2e3e 8de2 b43e 80fa efbe
000003d0: 4bb4 b13d 5226 97be 8d2d 30bd 4e7f 8e3e
000003e0: 2931 b13e e887 e63d 5d78 01be 9759 c8be
000003f0: 3936 c8be e7b7 013d cdff c73e 9657 21bf

policy.stem.0.bias f4 [64]
-0.0044667106 0.013771585 0.0015432306 0.053306375 -0.0045220447 0.01639833 0.065875374 -0.01407847
-0.053481303 -0.017272795 -0.029568741 0.016409323 -0.023890862 0.023159973 0.009956657 -0.027744295
0.0065824897 -0.009118412 0.00898431 0.018459914 0.04111987 0.05204998 -0.011405167 -0.0030215434
-0.06704176 -0.03194282 0.013532408 0.028391335 -0.029998738 0.007825293 0.020747524 -0.06399584
-0.00075752154 0.004833714 -0.04004697 -0.07726856 -0.017643316 -0.0063251164 0.0064874766 -0.048688106
-0.011352601 -0.0030337372 0.025999935 0.032417193 0.0016186801 0.0044025886 -0.009978421 -0.016099658
0.041175477 0.0061531244 -0.0034947093 -0.007288125 0.0034579355 0.020739553 -0.022443226 -0.018103339
-0.029920628 0.013766533 -0.0045721554 0.020908684 -0.04901564 0.03471272 -0.025763255 -0.018920774
00000000: 7c5d 92bb 37a2 613c 3a46 ca3a c957 5a3d
00000010: a92d 94bb ca55 863c abe9 863d 62a9 66bc
00000020: 360f 5bbd ad7f 8dbc 253a f2bc d86c 863c
00000030: c5b6 c3bc fcb9 bd3c 3f21 233c 0148 e3bc
00000040: edb1 d73b 6465 15bc ed32 133c 3f39 973c
00000050: 4f6d 283d 5c32 553d bddc 3abc 1605 46bb
00000060: 314d 89bd 79d6 02bd 08b7 5d3c f294 e83c
00000070: eabf f5bc a835 003c b6f6 a93c 4010 83bd
00000080: 6994 46ba 2264 9e3b 4b08 24bd fb3e 9ebd
00000090: b788 90bc ec42 cfbb e694 d43b 2e6d 47bd
000000a0: 4300 3abc aad1 46bb d1fd d43c e4c7 043d
000000b0: e429 d43a 9743 903b 887c 23bc 6ee3 83bc
000000c0: 9ea7 283d 26a0 c93b 7e07 65bb 39d1 eebb
000000d0: 889e 623b ffe5 a93c dbda b7bc 744d 94bc
000000e0: 1b1c f5bc 068d 613c 05d2 95bb b048 ab3c
000000f0: a0c4 48bd ed2e 0e3d 760d d3bc bdff 9abc

policy.stem.2.weight f4 [64, 64]
-0.19178393 -0.012927775 -0.13946594 -0.076755874 -0.53385913 0.31085578 0.26345384 0.38185835
-0.37287697 0.3527804 0.219154 -0.26200774 -0.16317795 -0.18225168 0.0013046912 0.27705398
0.38714814 0.39086506 0.019473698 0.49339545 -0.37159047 -0.36757383 -0.17933653 -0.3539467
0.090422474 0.45926264 0.5005496 -0.021372743 -0.12349909 0.12869714 -0.03190973 -0.20298769
-0.17364193 0.34535778 -0.35882157 -0.3049812 -0.2348226 -0.3859836 0.023554226 0.27908084
0.022980994 -0.023234371 0.058051955 -0.16518986 -0.4045952 -0.49031177 0.07071831 0.49123573
-0.351824 -0.21179484 0.19870496 -0.1597632 -0.046802927 0.17328657 0.121730976 -0.100449786
0.1585208 -0.26154113 0.43529266 0.27575758 0.066313565 0.24009307 -0.06186344 0.085580856
0.3105443 0.28127256 0.09766093 0.03372033 0.15827039 -0.17740664 0.118663736 -0.1394837
0.023143336 0.3416939 -0.20345625 -0.02682304 -0.27034983 -0.03944085 -0.23439169 0.06935972
0.32628453 0.34022036 -0.2036672 -0.29998305 -0.27306294 0.10250754 0.04619104 -0.20637934
0.45322388 -0.20997314 0.05944842 -0.060367227 0.111017026 -0.17956701 -0.25469902 0.19629641
-0.02729986 -0.36807957 0.055834193 0.14351073 0.23143335 0.3395623 -0.07506796 -0.288972
0.06187964 -0.22376782 0.19444029 0.11112956 0.20566817 -0.105652586 0.22797982 -0.29445612
-0.3702786 -0.08367992 -0.4465093 -0.28756288 0.07771049 0.06261975 -0.08209781 -0.15774639
0.095822215 -0.118941866 -0.21712214 -0.049934763 0.12357898 -0.01115207 -0.30905128 -0.29330695
0.7824965 -0.01944923 -0.11126067 -0.04688497 0.28632334 0.39188114 -0.22411215 0.062920734
-0.22582197 0.10320709 -0.5245118 -0.15273845 -0.028808689 0.3941604 -0.08001855 -0.4611216
-0.020205107 0.18682718 -0.034051675 -0.40718487 0.14967892 0.56076986 0.14076005 -0.16619033
0.34248248 0.042162705 -0.10433883 0.16380078 0.13043685 0.045904495 -0.029520983 0.2853873
-0.22015893 -0.30744585 0.44554827 0.34816295 0.03716845 -0.40383932 0.39384803 -0.3131032
-0.30056867 0.10629257 -0.2819297 -0.016133063 0.56773454 0.03269593 -0.13354176 -0.36325616
-0.08470726 0.44231153 -0.19622402 -0.10377535 0.45612448 0.5865446 0.27852118 -0.26642498
0.10469716 -0.36340165 0.13983767 -0.13176484 0.2728617 0.075357266 0.17402852 0.4903509
0.4010429 -0.53202945 -0.26372454 -0.07025063 0.11518144 0.2418189 0.3115398 -0.039833263
0.29856873 0.009800451 0.20982328 -0.061204426 -0.3640648 -0.15777037 -0.25825036 -0.09414491
-0.08193485 -0.1701297 -0.46674857 -0.42047682 0.20925231 0.23781914 -0.13678057 0.09314784
0.18381414 -0.19633524 0.26681757 -0.1728737 -0.06787508 0.060987025 0.19748425 0.29422966
-0.103939146 -0.23350431 -0.3427187 -0.064128794 0.34229898 0.18725088 0.26372853 0.10484279
0.16211537 0.25806928 -0.006431874 0.05935811 0.365698 0.4369177 0.38560334 0.19392946
0.04124868 0.16962501 -0.38096184 0.293406 0.38761452 -0.31264597 0.21167776 0.06572366
-0.20160344 0.20381576 -0.13248526 0.1646594 0.34235582 -0.26300913 0.28686664 -0.23340352
00000000: 0263 44be 05cf 53bc 29d0 0ebe 2f32 9dbd
00000010: feaa 08bf 7d28 9f3e 6ce3 863e f082 c33e
00000020: bbe9 bebe a29f b43e e869 603e e125 86be
00000030: 1f18 27be 2fa0 3abe 2c02 ab3a 05da 8d3e
00000040: 4838 c63e 771f c83e 4e87 9f3c 549e fc3e
00000050: 1b41 bebe a332 bcbe ffa3 37be 8038 b5be
00000060: 6b2f b93d 7924 eb3e 0524 003f e415 afbc
00000070: 17ed fcbd 2fc9 033e c7b3 02bd 01dc 4fbe
00000080: 31cf 31be bcd2 b03e 76b7 b7be 7f26 9cbe
00000090: 5675 70be a49f c5be cbf4 c03c afe3 8e3e
000000a0: a342 bc3c 0256 bebc e3c7 6d3d 8827 29be
000000b0: 1a27 cfbe 250a fbbe c3d4 903d 4083 fb3e
000000c0: 4622 b4be bfe0 58be 5079 4b3e f798 23be
000000d0: 6db4 3fbd 0972 313e 174e f93d 9eb8 cdbd
000000e0: 4753 223e b8e8 85be aede de3e 1930 8d3e
000000f0: 68cf 873d f5da 753e 8564 7dbd 0445 af3d
00000100: aaff 9e3e f502 903e 7402 c83d 541e 0a3d
00000110: a211 223e 16aa 35be f905 f33d d1d4 0ebe
00000120: 1897 bd3c 81f2 ae3e d656 50be febb dbbc
00000130: 4b6b 8abe bb8c 21bd 6004 70be 780c 8e3d
00000140: c40e a73e 5d31 ae3e 228e 50be 6197 99be
00000150: e8ce 8bbe 79ef d13d d132 3d3d 1b55 53be
00000160: f60c e83e 3303 57be 3080 733d a043 77bd
00000170: e55c e33d 6ae0 37be e967 82be ed01 493e
00000180: f5a3 dfbc ed74 bcbe 65b2 643d 7af4 123e
00000190: ddfc 6c3e 1cdb ad3e 3bbd 99bd 23f4 93be
000001a0: 8175 7d3d 6423 65be 5b1b 473e e597 e33d
000001b0: ad9a 523e 6260 d8bd 8b73 693e f4c2 96be
000001c0: 2895 bdbe 6160 abbd de9c e4be 713b 93be
000001d0: ad26 9f3d c93e 803d e622 a8bd 4588 21be
000001e0: 703e c43d cb97 f3bd 4455 5ebe 6588 4cbd
000001f0: fa16 fd3d 2cb7 36bc f83b 9ebe 542c 96be
00000200: b151 483f fe53 9fbc a2dc e3bd 740a 40bd
00000210: f998 923e a5a4 c83e a87d 65be 96dc 803d
00000220: e03d 67be 3d5e d33d 6846 06bf 7867 1cbe
00000230: 3300 ecbc 64cf c93e c4e0 a3bd 2118 ecbe
00000240: 2e85 a5bc a04f 3f3e c579 0bbd 897a d0be
00000250: 6e45 193e 9d8e 0f3f 6723 103e cc2d 2abe
00000260: dd59 af3e cdb2 2c3d 99af d5bd 64bb 273e
00000270: 3d91 053e 5a06 3c3d fdd5 f1bc 491e 923e
00000280: 5871 61be 8b69 9dbe e71e e43e 6a42 b23e
00000290: f23d 183d 07c4 cebe 73a6 c93e 104f a0be
000002a0: 23e4 99be ebaf d93d 1759 90be 7c29 84bc
000002b0: 0d57 113f 2bec 053d 2cbf 08be b6fc b9be
000002c0: 007b adbd a876 e23e f3ee 48be 2c88 d4bd
000002d0: 2689 e93e c927 163f 549a 8e3e db68 88be
000002e0: 776b d63d c80f babe 9b31 0f3e 5ded 06be
000002f0: 87b4 8b3e e954 9a3d 8834 323e 460f fb3e
00000300: 7f55 cd3e 1533 08bf e706 87be 90df 8fbd
00000310: 3fe4 eb3d 609f 773e 2582 9f3e 3428 23bd
00000320: 00de 983e 1292 203c eadb 563e 7eb1 7abd
00000330: b466 babe 8e8e 21be 6439 84be 0ccf c0bd
00000340: 75cd a7bd 7b36 2ebe abf9 eebe bd48 d7be
00000350: 3d46 563e dc86 733e 3510 0cbe 4bc4 be3d
00000360: c639 3c3e 1b0c 49be 509c 883e ce05 31be
00000370: 1702 8bbd 88cd 793d 5039 4a3e 45a5 963e
00000380: 0cde d4bd c11b 6fbe d378 afbe f555 83bd
00000390: d041 af3e b2be 3f3e 6d07 873e d1b7 d63d
000003a0: 9201 263e a821 843e 78c2 d2bb 7d21 733d
000003b0: c53c bb3e adb3 df3e cd6d c53e 7295 463e
000003c0: 60f4 283d 2eb2 2d3e 6e0d c3be 5039 963e
000003d0: 6975 c63e 2213 a0be 0ec2 583e 209a 863d
000003e0: 2271 4ebe 14b5 503e 37aa 07be 799c 283e
000003f0: 4349 af3e 22a9 86be 2fe0 923e 5501 6fbe

policy.stem.2.bias f4 [64]
0.016670857 -0.015533785 -0.030216707 -0.051667903 0.021316871 0.057395488 -0.056652866 0.04832172
0.024415318 -0.044308156 -0.063030384 0.015583562 0.06420002 0.0031750794 0.027871724 0.061891094
-0.021912046 0.0058383676 0.02575324 -0.034151234 0.01231325 -0.032886237 0.0051630046 0.06317685
0.031748705 -0.028866984 -0.07111403 -0.014685152 0.0028515582 -0.080308564 -0.057322882 0.009297707
0.029282559 0.0035492575 0.05482148 -0.038926046 0.05419852 -0.056032553 0.040591013 0.16498096
-0.022113023 -0.06707455 -0.01938864 0.045402758 -0.007411876 -0.05738052 0.07171644 0.058580566
-0.004967922 -0.028472917 -0.013747481 -0.07755735 -0.012095852 -0.003304156 -0.004570345 0.048103005
0.03521542 -0.031800784 0.062288426 0.03658279 -0.04621745 -0.0470461 0.02387291 0.022155307
00000000: 5291 883c 6b81 7ebc 0789 f7bc b9a1 53bd
00000010: b8a0 ae3c 8817 6b3d d60c 68bd ffec 453d
00000020: a202 c83c 787c 35bd 1316 81bd 3252 7f3c
00000030: 4d7b 833d fe14 503b 3e53 e43c 8481 7d3d
00000040: e480 b3bc c74f bf3b 75f8 d23c 2ae2 0bbd
00000050: 84bd 493c b8b3 06bd 6c2e a93b dd62 813d
00000060: ee0a 023d 747a ecbc 3ca4 91bd fe99 70bc
00000070: 35e1 3a3b d178 a4bd 66cb 6abd 6955 183c
00000080: fae1 ef3c a99a 683b 7d8c 603d eb70 1fbd
00000090: 44ff 5d3d 6482 65bd c342 263d c5f0 283e
000000a0: 5f26 b5bc 625e 89bd edd4 9ebc 3ef8 393d
000000b0: 53df f2bb d607 6bbd 12e0 923d 2df2 6f3d
000000c0: f3c9 a2bb 0940 e9bc 1d3d 61bc 63d6 9ebd
000000d0: ae2d 46bc 8a8a 58bb d5c2 95bb a807 453d
000000e0: 0b3e 103d 8a41 02bd 2622 7f3d d6d7 153d
000000f0: 824e 3dbd 69b3 40bd 1f91 c33c 0c7f b53c

policy.stem.4.weight f4 [64, 64]
-0.19178393 -0.012927775 -0.13946594 -0.076755874 -0.53385913 0.31085578 0.26345384 0.38185835
-0.37287697 0.3527804 0.219154 -0.26200774 -0.16317795 -0.18225168 0.0013046912 0.27705398
0.38714814 0.39086506 0.019473698 0.49339545 -0.37159047 -0.36757383 -0.17933653 -0.3539467
0.090422474 0.45926264 0.5005496 -0.021372743 -0.12349909 0.12869714 -0.03190973 -0.20298769
-0.17364193 0.34535778 -0.35882157 -0.3049812 -0.2348226 -0.3859836 0.023554226 0.27908084
0.022980994 -0.023234371 0.058051955 -0.16518986 -0.4045952 -0.49031177 0.07071831 0.49123573
-0.351824 -0.21179484 0.19870496 -0.1597632 -0.046802927 0.17328657 0.121730976 -0.100449786
0.1585208 -0.26154113 0.43529266 0.27575758 0.066313565 0.24009307 -0.06186344 0.085580856
0.3105443 0.28127256 0.09766093 0.03372033 0.15827039 -0.17740664 0.118663736 -0.1394837
0.023143336 0.3416939 -0.20345625 -0.02682304 -0.27034983 -0.03944085 -0.23439169 0.06935972
0.32628453 0.34022036 -0.2036672 -0.29998305 -0.27306294 0.10250754 0.04619104 -0.20637934
0.45322388 -0.20997314 0.05944842 -0.060367227 0.111017026 -0.17956701 -0.25469902 0.19629641
-0.02729986 -0.36807957 0.055834193 0.14351073 0.23143335 0.3395623 -0.07506796 -0.288972
0.06187964 -0.22376782 0.19444029 0.11112956 0.20566817 -0.105652586 0.22797982 -0.29445612
-0.3702786 -0.08367992 -0.4465093 -0.28756288 0.07771049 0.06261975 -0.08209781 -0.15774639
0.095822215 -0.118941866 -0.21712214 -0.049934763 0.12357898 -0.01115207 -0.30905128 -0.29330695
0.7824965 -0.01944923 -0.11126067 -0.04688497 0.28632334 0.39188114 -0.22411215 0.062920734
-0.22582197 0.10320709 -0.5245118 -0.15273845 -0.028808689 0.3941604 -0.08001855 -0.4611216
-0.020205107 0.18682718 -0.034051675 -0.40718487 0.14967892 0.56076986 0.14076005 -0.16619033
0.34248248 0.042162705 -0.10433883 0.16380078 0.13043685 0.045904495 -0.029520983 0.2853873
-0.22015893 -0.30744585 0.44554827 0.34816295 0.03716845 -0.40383932 0.39384803 -0.3131032
-0.30056867 0.10629257 -0.2819297 -0.016133063 0.56773454 0.03269593 -0.13354176 -0.36325616
-0.08470726 0.44231153 -0.19622402 -0.10377535 0.45612448 0.5865446 0.27852118 -0.26642498
0.10469716 -0.36340165 0.13983767 -0.13176484 0.2728617 0.075357266 0.17402852 0.4903509
0.4010429 -0.53202945 -0.26372454 -0.07025063 0.11518144 0.2418189 0.3115398 -0.039833263
0.29856873 0.009800451 0.20982328 -0.061204426 -0.3640648 -0.15777037 -0.25825036 -0.09414491
-0.08193485 -0.1701297 -0.46674857 -0.42047682 0.20925231 0.23781914 -0.13678057 0.09314784
0.18381414 -0.19633524 0.26681757 -0.1728737 -0.06787508 0.060987025 0.19748425 0.29422966
-0.103939146 -0.23350431 -0.3427187 -0.064128794 0.34229898 0.18725088 0.26372853 0.10484279
0.16211537 0.25806928 -0.006431874 0.05935811 0.365698 0.4369177 0.38560334 0.19392946
0.04124868 0.16962501 -0.38096184 0.293406 0.38761452 -0.31264597 0.21167776 0.06572366
-0.20160344 0.20381576 -0.13248526 0.1646594 0.34235582 -0.26300913 0.28686664 -0.23340352
00000000: 0263 44be 05cf 53bc 29d0 0ebe 2f32 9dbd
00000010: feaa 08bf 7d28 9f3e 6ce3 863e f082 c33e
00000020: bbe9 bebe a29f b43e e869 603e e125 86be
00000030: 1f18 27be 2fa0 3abe 2c02 ab3a 05da 8d3e
00000040: 4838 c63e 771f c83e 4e87 9f3c 549e fc3e
00000050: 1b41 bebe a332 bcbe ffa3 37be 8038 b5be
00000060: 6b2f b93d 7924 eb3e 0524 003f e415 afbc
00000070: 17ed fcbd 2fc9 033e c7b3 02bd 01dc 4fbe
00000080: 31cf 31be bcd2 b03e 76b7 b7be 7f26 9cbe
00000090: 5675 70be a49f c5be cbf4 c03c afe3 8e3e
000000a0: a342 bc3c 0256 bebc e3c7 6d3d 8827 29be
000000b0: 1a27 cfbe 250a fbbe c3d4 903d 4083 fb3e
000000c0: 4622 b4be bfe0 58be 5079 4b3e f798 23be
000000d0: 6db4 3fbd 0972 313e 174e f93d 9eb8 cdbd
000000e0: 4753 223e b8e8 85be aede de3e 1930 8d3e
000000f0: 68cf 873d f5da 753e 8564 7dbd 0445 af3d
00000100: aaff 9e3e f502 903e 7402 c83d 541e 0a3d
00000110: a211 223e 16aa 35be f905 f33d d1d4 0ebe
00000120: 1897 bd3c 81f2 ae3e d656 50be febb dbbc
00000130: 4b6b 8abe bb8c 21bd 6004 70be 780c 8e3d
00000140: c40e a73e 5d31 ae3e 228e 50be 6197 99be
00000150: e8ce 8bbe 79ef d13d d132 3d3d 1b55 53be
00000160: f60c e83e 3303 57be 3080 733d a043 77bd
00000170: e55c e33d 6ae0 37be e967 82be ed01 493e
00000180: f5a3 dfbc ed74 bcbe 65b2 643d 7af4 123e
00000190: ddfc 6c3e 1cdb ad3e 3bbd 99bd 23f4 93be
000001a0: 8175 7d3d 6423 65be 5b1b 473e e597 e33d
000001b0: ad9a 523e 6260 d8bd 8b73 693e f4c2 96be
000001c0: 2895 bdbe 6160 abbd de9c e4be 713b 93be
000001d0: ad26 9f3d c93e 803d e622 a8bd 4588 21be
000001e0: 703e c43d cb97 f3bd 4455 5ebe 6588 4cbd
000001f0: fa16 fd3d 2cb7 36bc f83b 9ebe 542c 96be
00000200: b151 483f fe53 9fbc a2dc e3bd 740a 40bd
00000210: f998 923e a5a4 c83e a87d 65be 96dc 803d
00000220: e03d 67be 3d5e d33d 6846 06bf 7867 1cbe
00000230: 3300 ecbc 64cf c93e c4e0 a3bd 2118 ecbe
00000240: 2e85 a5bc a04f 3f3e c579 0bbd 897a d0be
00000250: 6e45 193e 9d8e 0f3f 6723 103e cc2d 2abe
00000260: dd59 af3e cdb2 2c3d 99af d5bd 64bb 273e
00000270: 3d91 053e 5a06 3c3d fdd5 f1bc 491e 923e
00000280: 5871 61be 8b69 9dbe e71e e43e 6a42 b23e
00000290: f23d 183d 07c4 cebe 73a6 c93e 104f a0be
000002a0: 23e4 99be ebaf d93d 1759 90be 7c29 84bc
000002b0: 0d57 113f 2bec 053d 2cbf 08be b6fc b9be
000002c0: 007b adbd a876 e23e f3ee 48be 2c88 d4bd
000002d0: 2689 e93e c927 163f 549a 8e3e db68 88be
000002e0: 776b d63d c80f babe 9b31 0f3e 5ded 06be
000002f0: 87b4 8b3e e954 9a3d 8834 323e 460f fb3e
00000300: 7f55 cd3e 1533 08bf e706 87be 90df 8fbd
00000310: 3fe4 eb3d 609f 773e 2582 9f3e 3428 23bd
00000320: 00de 983e 1292 203c eadb 563e 7eb1 7abd
00000330: b466 babe 8e8e 21be 6439 84be 0ccf c0bd
00000340: 75cd a7bd 7b36 2ebe abf9 eebe bd48 d7be
00000350: 3d46 563e dc86 733e 3510 0cbe 4bc4 be3d
00000360: c639 3c3e 1b0c 49be 509c 883e ce05 31be
00000370: 1702 8bbd 88cd 793d 5039 4a3e 45a5 963e
00000380: 0cde d4bd c11b 6fbe d378 afbe f555 83bd
00000390: d041 af3e b2be 3f3e 6d07 873e d1b7 d63d
000003a0: 9201 263e a821 843e 78c2 d2bb 7d21 733d
000003b0: c53c bb3e adb3 df3e cd6d c53e 7295 463e
000003c0: 60f4 283d 2eb2 2d3e 6e0d c3be 5039 963e
000003d0: 6975 c63e 2213 a0be 0ec2 583e 209a 863d
000003e0: 2271 4ebe 14b5 503e 37aa 07be 799c 283e
000003f0: 4349 af3e 22a9 86be 2fe0 923e 5501 6fbe

policy.stem.4.bias f4 [64]
0.016670857 -0.015533785 -0.030216707 -0.051667903 0.021316871 0.057395488 -0.056652866 0.04832172
0.024415318 -0.044308156 -0.063030384 0.015583562 0.06420002 0.0031750794 0.027871724 0.061891094
-0.021912046 0.0058383676 0.02575324 -0.034151234 0.01231325 -0.032886237 0.0051630046 0.06317685
0.031748705 -0.028866984 -0.07111403 -0.014685152 0.0028515582 -0.080308564 -0.057322882 0.009297707
0.029282559 0.0035492575 0.05482148 -0.038926046 0.05419852 -0.056032553 0.040591013 0.16498096
-0.022113023 -0.06707455 -0.01938864 0.045402758 -0.007411876 -0.05738052 0.07171644 0.058580566
-0.004967922 -0.028472917 -0.013747481 -0.07755735 -0.012095852 -0.003304156 -0.004570345 0.048103005
0.03521542 -0.031800784 0.062288426 0.03658279 -0.04621745 -0.0470461 0.02387291 0.022155307
00000000: 5291 883c 6b81 7ebc 0789 f7bc b9a1 53bd
00000010: b8a0 ae3c 8817 6b3d d60c 68bd ffec 453d
00000020: a202 c83c 787c 35bd 1316 81bd 3252 7f3c
00000030: 4d7b 833d fe14 503b 3e53 e43c 8481 7d3d
00000040: e480 b3bc c74f bf3b 75f8 d23c 2ae2 0bbd
00000050: 84bd 493c b8b3 06bd 6c2e a93b dd62 813d
00000060: ee0a 023d 747a ecbc 3ca4 91bd fe99 70bc
00000070: 35e1 3a3b d178 a4bd 66cb 6abd 6955 183c
00000080: fae1 ef3c a99a 683b 7d8c 603d eb70 1fbd
00000090: 44ff 5d3d 6482 65bd c342 263d c5f0 283e
000000a0: 5f26 b5bc 625e 89bd edd4 9ebc 3ef8 393d
000000b0: 53df f2bb d607 6bbd 12e0 923d 2df2 6f3d
000000c0: f3c9 a2bb 0940 e9bc 1d3d 61bc 63d6 9ebd
000000d0: ae2d 46bc 8a8a 58bb d5c2 95bb a807 453d
000000e0: 0b3e 103d 8a41 02bd 2622 7f3d d6d7 153d
000000f0: 824e 3dbd 69b3 40bd 1f91 c33c 0c7f b53c

policy.stem.6.weight f4 [2, 64]
-0.30384725 0.11652155 -0.22194725 -0.28547472 -0.54264927 0.13556236 0.24493141 0.14752279
0.23007898 -0.3554556 0.29854158 0.081672885 -0.40687984 -0.5005118 -0.029778715 -0.19181399
-0.34045917 -0.37607285 0.4319568 0.20908986 0.47537768 -0.16730005 -0.053360373 0.004713734
-0.2358031 -0.4301937 -0.62976575 0.25028902 -0.41388538 0.010475238 0.07287907 0.09510193
0.39805663 0.40590417 0.24245624 0.30499592 -0.31891477 0.038415473 0.05997223 -0.028526269
-0.1857429 -0.3035694 0.059237637 0.58240867 0.3281057 0.26942268 0.16768306 -0.27490273
-0.16267768 -0.07233155 -0.31348568 0.29390606 0.21870093 0.23661442 -0.35292453 0.2595503
0.025922421 -0.50791043 0.07054534 0.4979173 -0.1781144 0.4283496 0.10315018 0.0848308
-0.13739386 0.033383343 -0.25415075 0.26360545 0.47205892 0.19194819 -0.11495205 0.10820683
0.35148835 -0.07139587 0.58069724 -0.13224927 -0.14447741 0.5313033 0.09317724 0.26014742
-0.25877485 0.16620585 -0.14875259 0.15932623 0.30748293 -0.08779207 -0.034244053 -0.011799883
-0.2999333 0.008061646 -0.043646038 0.0839777 0.2815832 0.071409374 0.07736659 -0.07060207
0.29772425 0.3434244 -0.40192422 0.15176274 0.106601104 -0.14292504 -0.47377756 -0.15751576
-0.22074144 -0.057026554 -0.088450365 -0.55263305 0.25222784 0.27459982 -0.21911514 -0.12494383
-0.5229152 -0.32302973 -0.14934377 -0.13616556 0.19975229 0.17310502 0.33864912 -0.3855398
0.089899115 -0.45883918 0.11023047 -0.25297213 0.12729348 0.3898432 -0.39432782 0.40398496
00000000: de91 9bbe daa2 ee3d 2446 63be be29 92be
00000010: 10eb 0abf dcd0 0a3e 4dcf 7a3e 3710 173e
00000020: d399 6b3e 47fe b5be 71da 983e 1d44 a73d
00000030: 8e52 d0be 8b21 00bf 7ef2 f3bc e36a 44be
00000040: aa50 aebe 9f8c c0be 7129 dd3e a71b 563e
00000050: b464 f33e b450 2bbe 6890 5abd ab75 9a3b
00000060: 5e76 71be 5942 dcbe 5438 21bf e225 803e
00000070: c9e8 d3be 55a0 2b3c 9f41 953d cdc4 c23d
00000080: 14ce cb3e acd2 cf3e 7346 783e 6d28 9c3e
00000090: cc48 a3be 8b59 1d3d 71a5 753d ecaf e9bc
000000a0: 6333 3ebe 736d 9bbe 2aa3 723d bc18 153f
000000b0: 78fd a73e c5f1 893e 1cb5 2b3e 0dc0 8cbe
000000c0: fa94 26be 9022 94bd 3281 a0be db7a 963e
000000d0: 23f3 5f3e 0d4b 723e 86b2 b4be c7e3 843e
000000e0: 425b d43c 6b06 02bf 137a 903d 04ef fe3e
000000f0: 9f63 36be a450 db3e 6740 d33d c5bb ad3d
00000100: fab0 0cbe f9bc 083d 0c20 82be 4bf7 863e
00000110: b5b1 f13e 118e 443e fb6b ebbd 8b9b dd3d
00000120: 48f6 b33e ff37 92bd 93a8 143f 5a6c 07be
00000130: e3f1 13be 7e03 083f b5d3 be3d 0b32 853e
00000140: 237e 84be de31 2a3e 9952 18be 6a26 233e
00000150: 676e 9d3e 54cc b3bd 7e43 0cbd 4c54 41bc
00000160: dc90 99be fe14 043c 30c6 32bd 80fc ab3d
00000170: ac2b 903e 143f 923d 6072 9e3d d197 90bd
00000180: 506f 983e 53d5 af3e 03c9 cdbe b167 1b3e
00000190: ae51 da3d f15a 12be f992 f2be d04b 21be
000001a0: 0b0a 62be ad94 69bd 7725 b5bd 5c79 0dbf
000001b0: 0224 813e 5998 8c3e b85f 60be 8de2 ffbd
000001c0: c5dd 05bf 2764 a5be 93ed 18be fc6e 0bbe
000001d0: dd8b 4c3e 7142 313e 6b63 ad3e 7965 c5be
000001e0: 071d b83d f8ec eabe 83c0 e13d 9085 81be
000001f0: 3959 023e 8799 c73e 56e5 c9be 1ed7 ce3e

policy.stem.6.bias f4 [2]
-0.007923091 0.007923147
00000000: dacf 01bc 16d0 013c

value.stem.0.weight f4 [64, 4]
-0.10312014 -0.80444133 0.21012364 0.84219724 0.57654697 -0.27583432 -0.1895569 -1.0787375
-0.37721333 -0.42838785 0.10585372 -1.0019494 0.6652676 0.08681294 -0.33510315 -0.09392251
-0.24843046 -0.26519015 -0.3904792 -0.838392 -0.4691228 1.0003574 -0.15141216 -1.1349701
0.0088673085 -0.60721016 0.3828473 1.0494192 -0.40844163 -1.0006648 -0.47045502 0.27634373
0.47809172 0.40904796 0.57242566 -0.45372778 0.010547771 0.011239014 -0.10602293 -1.2391484
0.0037504856 -0.052045066 -1.0296768 0.06840317 -0.044463582 0.91725564 1.1615874 0.19053252
-0.26252425 0.120267056 -0.31640983 -1.315238 0.4333046 0.1765919 -0.077398665 -0.67078435
-0.36642674 -0.7410839 -0.25074536 -0.5640512 -0.08876953 -0.46535757 -0.42328578 -0.81264335
-0.26346815 0.44972667 0.99735606 -0.12159938 -0.07760373 -0.1413539 -0.38744625 0.5659277
0.15096712 0.18493095 -0.1612484 -0.30274445 0.41295075 0.3555927 -0.43795958 -0.078065984
0.27838805 0.9487559 -0.106438234 -0.42234004 -0.54512286 -0.36389613 0.22720252 0.07329944
0.13483909 0.94845337 0.5319736 0.010143741 0.06308298 -0.6714479 0.6446643 -0.03737179
0.27080062 0.40744963 -0.26562867 0.9716079 -0.2032543 -0.7357721 0.5679209 0.13531038
-0.2834068 -0.9032447 -0.29622093 -1.1665169 -0.24703293 -0.8467432 -0.07105961 -0.92999816
-0.0015891087 -0.5986126 0.41716918 0.79825884 -0.25569054 -1.137537 -0.2826981 -0.044119563
-0.52408767 0.05430533 -0.46086058 -0.29851338 -0.27789178 0.83808976 -0.19276397 -0.9102164
0.3164576 0.9665313 -0.40799445 -0.76036274 -0.61591166 -0.5566984 -0.5075594 -0.271166
-0.49493486 -0.88429976 -0.5484079 -0.024224596 0.4207834 0.62297714 0.5564524 0.81635857
0.4219531 -0.7767074 -0.020167645 0.83802176 -0.16378862 0.4617791 0.7188725 0.15203434
-0.22487965 -0.69344467 0.3046866 1.0063403 -0.11098786 -0.09575576 -0.6197779 0.4825311
-0.19054934 -0.46409768 -0.020043522 -0.99538726 0.22469522 -0.14961667 -0.26125193 1.2892311
-0.36045676 -0.31121883 0.58369094 0.9201812 0.41305074 -0.16710785 -0.73981607 -0.2283121
-0.03310854 -0.5961479 -1.178424 0.8011738 0.33186543 0.028435629 0.84480643 0.11023056
0.529406 -0.22432882 0.617222 0.5904536 -0.33908045 -0.72053367 0.30143064 0.05674778
-0.27986562 -0.6865435 -0.5734295 -0.84532964 -0.09023951 -0.6326421 -1.6903316 -0.31543604
0.28160396 0.28253058 0.30266622 -0.3782016 -0.49866518 -0.5937341 0.21294309 0.707782
-0.16008666 -0.84358406 -0.9694842 -0.13037865 -0.6345064 -0.14080706 -0.0935823 0.11879405
-0.38811105 0.46806613 0.0126699805 0.9470858 -0.32388914 -1.0549636 0.12079716 -0.6012772
-0.29094523 -0.8791552 -0.13547148 -1.1672996 -0.23361583 -0.81418705 0.26928186 -0.6076406
-0.32824254 -0.64949083 -0.1984261 0.054173585 -0.13364369 0.028638195 0.33772635 1.1430508
-0.37817353 -0.87373763 -0.25368196 -0.56788784 -0.05987558 -1.0308703 -0.30887964 -1.2115941
0.19626395 -0.004016992 -0.4405148 -0.09896637 0.5743438 0.3664473 0.8570603 -0.85594493
00000000: a730 d3bd deef 4dbf a72a 573e 3d9a 573f
00000010: 9598 133f 283a 8dbe 341b 42be 1214 8abf
00000020: 1b22 c1be a755 dbbe d6c9 d83d e13f 80bf
00000030: fa4e 2a3f fcca b13d a492 abbe 725a c0bd
00000040: 8e64 7ebe 01c7 87be e4ec c7be dca0 56bf
00000050: dd30 f0be b60b 803f ca0b 1bbe b346 91bf
00000060: 3048 113c 2072 1bbf 9004 c43e 5e53 863f
00000070: 431f d1be c915 80bf 7bdf f0be ed7c 8d3e
00000080: 70c8 f43e bc6e d13e 7d8a 123f 024f e8be
00000090: 8fd0 2c3c d723 383c 8d22 d9bd 6a9c 9ebf
000000a0: b5ca 753b 352d 55bd 73cc 83bf f616 8c3d
000000b0: 721f 36bd 44d1 6a3f e5ae 943f f51a 433e
000000c0: 9469 86be 934e f63d 7800 a2be b859 a8bf
000000d0: 1ada dd3e 82d4 343e 3183 9ebd 86b8 2bbf
000000e0: 499c bbbe adb7 3dbf b261 80be a965 10bf
000000f0: cdcc b5bd 5943 eebe eab8 d8be 6509 50bf
00000100: 4ce5 86be 9342 e63e ba52 7f3f 1909 f9bd
00000110: b4ee 9ebd 14bf 10be 5b5f c6be a3e0 103f
00000120: 2097 1a3e 8a5e 3d3e 4d1e 25be 5201 9bbe
00000130: 486e d33e 3f10 b63e 3d3c e0be 0fe1 9fbd
00000140: e188 8e3e abe1 723f 4afc d9bd f43c d8be
00000150: 2c8d 0bbf 9850 babe c7a7 683e 041e 963d
00000160: 4213 0a3e d7cd 723f 6c2f 083f ef31 263c
00000170: a631 813d 02e4 2bbf b808 253f 2913 19bd
00000180: 61a6 8a3e 3d9d d03e 7b00 88be 4cbb 783f
00000190: e521 50be 8f5b 3cbf 4463 113f ce8e 0a3e
000001a0: b21a 91be 0b3b 67bf 45aa 97be 6d50 95bf
000001b0: 33f6 7cbe 2ac4 58bf b387 91bd 5c14 6ebf
000001c0: a449 d0ba ad3e 19bf 3397 d53e b15a 4c3f
000001d0: dfe9 82be d09a 91bf cebd 90be b7b6 34bd
000001e0: 9c2a 06bf 446f 5e3d ebf5 ebbe bfd6 98be
000001f0: d547 8ebe 0d8d 563f eb63 45be f103 69bf
00000200: bb06 a23e 986e 773f a6e4 d0be 22a7 42bf
00000210: 63ac 1dbf c983 0ebf 6aef 01bf 45d6 8abe
00000220: 1a68 fdbe 7861 62bf 7664 0cbf a972 c6bc
00000230: ec70 d73e 6e7b 1f3f aa73 0e3f e0fc 503f
00000240: 3d0a d83e 4cd6 46bf 9e36 a5bc 9888 563f
00000250: 34b8 27be 4f6e ec3e 0708 383f e4ae 1b3e
00000260: da46 66be 9785 31bf e2ff 9b3e c2cf 803f
00000270: 9a4d e3bd 991b c4bd c4a9 1ebf 510e f73e
00000280: 5e1f 43be 369e edbe 5032 a4bc b3d1 7ebf
00000290: 8116 663e 1d35 19be d0c2 85be 8605 a53f
000002a0: ca8d b8be 1358 9fbe c56c 153f ff90 6b3f
000002b0: 637b d33e 521e 2bbe 9664 3dbf a6ca 69be
000002c0: d29c 07bd 269d 18bf 99d6 96bf ba19 4d3f
000002d0: 44ea a93e d6f1 e83c 3c45 583f 8fc0 e13d
000002e0: 2787 073f 74b6 65be 4302 1e3f f827 173f
000002f0: f49b adbe e574 38bf 1e55 9a3e 5c70 683d
00000300: 8c4a 8fbe 51c1 2fbf 47cc 12bf 8667 58bf
00000310: 7ecf b8bd d5f4 21bf c95c d8bf d580 a1be
00000320: 652e 903e d9a7 903e 11f7 9a3e a4a3 c1be
00000330: 0b51 ffbe f5fe 17bf c10d 5a3e 3331 353f
00000340: c2ed 23be 20f5 57bf 1e30 78bf fb81 05be
00000350: 036f 22bf ba2f 10be 14a8 bfbd 4b4a f33d
00000360: 7eb6 c6be 5da6 ef3e c095 4f3c 3774 723f
00000370: ccd4 a5be 0c09 87bf 8064 f73d 4ded 19bf
00000380: c6f6 94be 5110 61bf 09b9 0abe 136a 95bf
00000390: fd38 6fbe 906e 50bf 50df 893e 568e 1bbf
000003a0: 680f a8be 0845 26bf 3630 4bbe 1fe5 5d3d
000003b0: e4d9 08be a69a ea3c 78ea ac3e 7d4f 923f
000003c0: f69f c1be 45ad 5fbf 9ae2 81be 1961 11bf
000003d0: 1940 75bd 8ff3 83bf 7925 9ebe 8415 9bbf
000003e0: 6bf9 483e f9a0 83bb 288b e1be e1ae cabd
000003f0: 3208 133f fb9e bb3e 4e68 5b3f 351f 5bbf

value.stem.0.bias f4 [64]
-0.23645176 0.37094912 -0.18328458 -0.38083583 -0.12350092 -0.123888895 -0.16354616 0.27403954
0.2936195 0.06158799 0.1711716 0.19406869 -0.031045595 -0.16945055 0.30390278 0.19817562
-0.36888105 0.20915724 -0.18232457 -0.28647876 0.2771451 0.44132787 0.1514521 0.3625889
0.2577324 0.21299635 0.08902761 0.2383977 -0.14556187 -0.31703058 0.21049097 -0.07095129
0.28718665 0.41977698 -0.337025 0.15054536 0.2365508 0.21634255 -0.085024804 0.2196115
-0.092522755 0.15497349 0.20021755 -0.26747036 0.30129725 -0.30610257 -0.1595759 0.3210598
-0.09968039 -0.051537506 -0.34521124 -0.34284467 0.20328286 -0.36059183 -0.33174965 -0.24196646
-0.12684056 -0.32325092 -0.27278024 -0.046111498 0.31447002 -0.0985308 -0.25408438 -0.34932932
00000000: 6920 72be 0bed bd3e f4ae 3bbe eafc c2be
00000010: 0dee fcbd 76b9 fdbd a578 27be e94e 8c3e
00000020: 4c55 963e b043 7c3d 9c47 2f3e f1b9 463e
00000030: 5553 febc 7284 2dbe 2599 9b3e 8dee 4a3e
00000040: fadd bcbe 512d 563e 4bb3 3abe 58ad 92be
00000050: f6e5 8d3e baf5 e13e 4216 1b3e 41a5 b93e
00000060: 80f5 833e b71b 5a3e 1c54 b63d 871e 743e
00000070: 2c0e 15be d551 a2be f28a 573e e94e 91bd
00000080: 210a 933e 02ed d63e 8a8e acbe 9028 1a3e
00000090: 5f3a 723e e788 5d3e 7c21 aebd d6e1 603e
000000a0: 927c bdbd 5fb1 1e3e d405 4d3e e0f1 88be
000000b0: a243 9a3e 7ab9 9cbe dd67 23be f361 a43e
000000c0: 3b25 ccbd fe18 53bd 87bf b0be 5689 afbe
000000d0: 6229 503e 7e9f b8be 17db a9be 0ec6 77be
000000e0: 7ee2 01be 2581 a5be daa9 8bbe 69df 3cbd
000000f0: 3702 a13e 84ca c9bd 5917 82be 4bdb b2be

value.stem.2.weight f4 [64, 64]
0.83951104 -0.6131738 0.08002402 0.29514048 -0.84314686 -0.055790544 0.25101593 -0.8389288
0.091173574 0.19543907 -0.5898954 0.7136116 -0.67987853 -0.13716258 -0.27922884 -1.2046832
0.74721754 -0.041314296 -0.3113571 -0.02025932 0.11844962 -0.15219896 0.7591684 0.46156168
0.58430046 0.5282174 -0.33686247 -0.28403142 0.8625593 -0.36169773 -0.42424956 -0.51813865
-0.171013 -0.6064322 -0.5119009 0.54904455 0.1067423 0.81787914 0.763012 -0.09597389
-0.17417422 0.15563129 0.06711684 -0.41180095 -0.9032692 0.6009693 0.5608106 -0.10212218
-0.82629484 -0.46335113 -0.05330409 0.34323573 -0.62168455 0.25928447 0.07230016 0.066272385
0.10649454 0.1341637 0.32936388 0.29114264 -0.42359626 -0.777041 -0.12394063 0.13758253
-0.14083178 0.18404414 -0.051557593 0.42093483 -0.1329132 -0.64587754 0.24236125 0.32170543
-0.70976263 -0.8897375 0.52620226 0.06092571 -0.421643 -0.15870929 0.31844643 0.5365489
-0.2817274 0.96434987 0.28900632 0.06544667 -0.009006097 -0.24630451 -0.036827374 0.33640325
0.3352516 -0.26680925 0.08555727 0.30669892 -0.31105196 0.057726678 0.35876465 -0.59401625
0.31318834 0.38833466 0.3687687 0.032315172 0.5833641 -0.62519884 0.025759848 0.6464027
0.07681466 1.0549059 0.13557197 -0.5699998 0.4844348 -0.22955729 -0.1287554 -0.10934218
0.249807 -0.22894242 0.21057472 0.18471068 0.3442112 0.4177568 0.3740699 0.09648313
-0.17901231 -0.3655992 -0.15763633 0.4509014 0.3915531 0.6236865 -0.09869488 -1.3233008
-0.019093627 -0.9314267 0.5644998 -0.1795661 0.08645673 0.69526243 0.35816652 0.034376305
-0.81263 -0.32669017 0.10215899 -0.024702277 0.06756669 -0.32391766 -0.5385535 -0.09461017
0.75525254 0.035553444 0.7497469 -0.03836144 0.05504964 -0.3383708 0.41430575 -0.3284764
-0.6958197 0.30480105 0.055414904 0.110434964 0.031231023 0.7962006 -0.08053332 0.19101205
-0.42339352 0.026989387 1.1324713 -0.21350972 -0.6009806 -0.41821313 0.25648314 0.17983513
0.7421531 -0.24506953 0.44892222 -0.54636353 -0.14223391 0.32232663 -0.38369265 -0.3884106
0.5075622 0.010214165 0.75790113 0.97771096 -0.19586357 1.0578125 0.72504073 0.34486437
0.6572528 -0.19174793 0.2158688 0.17642877 -0.41746673 0.5550711 0.48868972 -0.11800541
0.14834543 0.066602565 0.8197504 -0.017249815 0.07189153 -0.42673355 0.49449772 0.10626622
-0.21170826 -0.19079216 -0.47073427 0.13577108 -0.16265674 0.2160593 -0.15185235 -0.15884182
0.87313235 0.13581647 0.45314586 -0.12411119 -0.42970258 -0.36965626 -0.20167294 0.82702696
-0.19391474 0.24529496 0.17925176 -0.08260819 0.01821362 1.2184983 -0.41538683 -0.36711845
-0.3316764 0.023370428 0.41202283 -0.27061716 0.04427702 -0.20617524 0.4702442 0.31918067
0.6778097 -0.53497475 0.11182426 -0.18874669 -0.43582052 0.02857059 0.23800217 0.05423521
-0.03013525 -0.12955874 0.0029221042 1.0420405 -0.53752035 0.5904008 0.07324938 0.53744346
0.7493273 0.09549781 0.32646325 0.012832125 -0.05523562 0.801875 0.20338747 0.19722123
00000000: 32ea 563f f5f8 1cbf a2e3 a33d a71c 973e
00000010: 79d8 57bf a084 64bd 2985 803e 0ac4 56bf
00000020: 36b9 ba3d 2e21 483e 6303 17bf 40af 363f
00000030: 850c 2ebf 5974 0cbe 15f7 8ebe 0f33 9abf
00000040: a649 3f3f 2e39 29bd 336a 9fbe e0f6 a5bc
00000050: b795 f23d 0bda 1bbe dc58 423f d051 ec3e
00000060: b794 153f 4139 073f 3d79 acbe 916c 91be
00000070: b0d0 5c3f 7230 b9be 3d37 d9be bca4 04bf
00000080: 081e 2fbe 243f 1bbf f00b 03bf 2f8e 0c3f
00000090: b59b da3d 8760 513f c154 433f f58d c4bd
000000a0: ba5a 32be cf5d 1f3e 8e74 893d 93d7 d2be
000000b0: a63c 67bf 20d9 193f 4991 0f3f 6f25 d1bd
000000c0: 0f88 53bf 5c3c edbe 6455 5abd 98bc af3e
000000d0: b826 1fbf efc0 843e 1b12 943d d1b9 873d
000000e0: cf19 da3d 3562 093e 62a2 a83e a610 953e
000000f0: 9ce1 d8be 29ec 46bf 96d4 fdbd 6fe2 0c3e
00000100: 3536 10be 1176 3c3e 0e2e 53bd c584 d73e
00000110: 661a 08be 3b58 25bf 8c2d 783e 93b6 a43e
00000120: 01b3 35bf d6c5 63bf 31b5 063f 3d8d 793d
00000130: 97e1 d7be b084 22be 690b a33e 455b 093f
00000140: 933e 90be a2df 763f a3f8 933e e708 863d
00000150: 4f8e 13bc 4037 7cbe 4dd8 16bd 0c3d ac3e
00000160: 19a6 ab3e 399b 88be a638 af3d a407 9d3e
00000170: 3442 9fbe cf72 6c3d 00b0 b73e 7311 18bf
00000180: 395a a03e cdd3 c63e 40cf bc3e ea5c 043d
00000190: 5a57 153f 080d 20bf 5106 d33c a67a 253f
000001a0: 0151 9d3d 2807 873f 61d3 0a3e 82eb 11bf
000001b0: d707 f83e 1111 6bbe 75d8 03be cbee dfbd
000001c0: 68cd 7f3e e26f 6abe e6a0 573e cc24 3d3e
000001d0: 733c b03e 38e4 d53e 1786 bf3e f298 c53d
000001e0: 014f 37be d12f bbbe 6b6b 21be 8cdc e63e
000001f0: a679 c83e eba9 1f3f 8b20 cabd ec61 a9bf
00000200: 3d6a 9cbc fb71 6ebf 0f83 103f 2de0 37be
00000210: 3a10 b13d b8fc 313f 9a61 b73e 2bce 0c3d
00000220: 8508 50bf ef43 a7be bc38 d13d 6e5c cabc
00000230: 6860 8a3d 89d8 a5be a4de 09bf fac2 c1bd
00000240: 3b58 413f 7da0 113d 6aef 3f3f e320 1dbd
00000250: bb7b 613d f03e adbe e21f d43e 0f2e a8be
00000260: 3d21 32bf e20e 9c3e bdfa 623d ba2b e23d
00000270: 34d8 ff3c cdd3 4b3f a7ee a4bd aa98 433e
00000280: 09c7 d8be d918 dd3c d2f4 903f 4ba2 5abe
00000290: ddd9 19bf 0820 d6be c251 833e b326 383e
000002a0: bffd 3d3f 82f3 7abe 22d9 e53e 7bde 0bbf
000002b0: c4a5 11be ff07 a53e 5d73 c4be c1dd c6be
000002c0: 99ef 013f 5059 273c cf05 423f 444b 7a3f
000002d0: 7690 48be 6666 873f 459c 393f 1092 b03e
000002e0: b841 283f 9259 44be b60c 5d3e bea9 343e
000002f0: 33be d5be 2419 0e3f 8a35 fa3e d2ac f1bd
00000300: dde7 173e ed66 883d 2adb 513f 7c4f 8dbc
00000310: de3b 933d d27c dabe ce2e fd3e 1ba2 d93d
00000320: 0dca 58be 055f 43be 1504 f1be 9307 0b3e
00000330: 7d8f 26be a63e 5d3e 2f7f 1bbe 6ea7 22be
00000340: 9a85 5f3f 7913 0b3e bc02 e83e 022e febd
00000350: fa01 dcbe 9643 bdbe 5a83 4ebe 0ab8 533f
00000360: 9691 46be 9a2e 7b3e c68d 373e 7c2e a9bd
00000370: bb34 953c c1f7 9b3f 95ad d4be f3f6 bbbe
00000380: 7dd1 a9be 5773 bf3c a8f4 d23e 558e 8abe
00000390: d25b 353d 9a1f 53be d9c3 f03e a66b a33e
000003a0: f084 2d3f 1bf4 08bf 1e04 e53d d046 41be
000003b0: de23 dfbe df0c ea3c d7b6 733e bd25 5e3d
000003c0: 33de f6bc 0cab 04be c680 3f3b 9561 853f
000003d0: ef9a 09bf 8224 173f c503 963d e595 093f
000003e0: ead3 3f3f 5b94 c33d 3126 a73e d53d 523c
000003f0: bf3e 62bd ae47 4d3f ce44 503e 5df4 493e

value.stem.2.bias f4 [64]
-0.16304763 0.2600521 -0.28529066 -0.09128066 0.3592877 0.08040437 -0.3073734 0.223859
-0.10362317 0.06445528 -0.27797112 -0.37702596 -0.052495454 -0.34255397 0.16155894 -0.1875758
0.22923824 0.10226716 -0.13925312 -0.036302287 0.25702378 -0.06590178 -0.33868432 -0.22351064
0.41570982 0.014477371 -0.27847174 0.064091556 0.05863837 0.06547896 0.29330003 0.10622286
-0.26363766 0.08842931 -0.035886552 -0.060225338 -0.26691112 -0.09548968 -0.2421921 -0.18735902
-0.34171104 -0.20990762 -0.20230883 0.234576 0.019256113 0.10675608 -0.13495372 0.09357759
-0.009869849 -0.13405214 0.16257672 -0.22901535 0.13166577 -0.18305077 -0.09871231 -0.057454053
-0.20139739 0.22167276 -0.08114698 -0.16128004 0.01562636 -0.046397746 -0.16258363 -0.029559955
00000000: f5f5 26be 8d25 853e 9e11 92be 5bf1 babd
00000010: 8ff4 b73e 0cab a43d 0c60 9dbe 4b3b 653e
00000020: 6238 d4bd 2101 843d 3b52 8ebe 8c09 c1be
00000030: 7905 57bd 3c63 afbe b56f 253e df13 40be
00000040: 6ebd 6a3e 7271 d13d 5f98 0ebe b5b1 14bd
00000050: 9f98 833e 83f7 86bd 0868 adbe f9df 64be
00000060: ebd7 d43e 7f32 6d3c d993 8ebe 6f42 833d
00000070: ca2e 703d d519 863d 6c2b 963e 5f8b d93d
00000080: 84fb 86be 6d1a b53d c7fd 12bd d8ae 76bd
00000090: 93a8 88be 1890 c3bd 3501 78be 0bdb 3fbe
000000a0: c0f4 aebe 06f2 56be 0c2a 4fbe b134 703e
000000b0: ffbe 9d3c efa2 da3d 4f31 0abe 9ca5 bf3d
000000c0: 26b5 21bc f744 09be 837a 263e 0083 6abe
000000d0: 64d3 063e a971 3bbe ae29 cabd f154 6bbd
000000e0: 1e3b 4ebe 2ffe 623e 6330 a6bd 9826 25be
000000f0: da02 803c 900b 3ebd 537c 26be b827 f2bc

value.stem.4.weight f4 [64, 64]
0.83951104 -0.6131738 0.08002402 0.29514048 -0.84314686 -0.055790544 0.25101593 -0.8389288
0.091173574 0.19543907 -0.5898954 0.7136116 -0.67987853 -0.13716258 -0.27922884 -1.2046832
0.74721754 -0.041314296 -0.3113571 -0.02025932 0.11844962 -0.15219896 0.7591684 0.46156168
0.58430046 0.5282174 -0.33686247 -0.28403142 0.8625593 -0.36169773 -0.42424956 -0.51813865
-0.171013 -0.6064322 -0.5119009 0.54904455 0.1067423 0.81787914 0.763012 -0.09597389
-0.17417422 0.15563129 0.06711684 -0.41180095 -0.9032692 0.6009693 0.5608106 -0.10212218
-0.82629484 -0.46335113 -0.05330409 0.34323573 -0.62168455 0.25928447 0.07230016 0.066272385
0.10649454 0.1341637 0.32936388 0.29114264 -0.42359626 -0.777041 -0.12394063 0.13758253
-0.14083178 0.18404414 -0.051557593 0.42093483 -0.1329132 -0.64587754 0.24236125 0.32170543
-0.70976263 -0.8897375 0.52620226 0.06092571 -0.421643 -0.15870929 0.31844643 0.5365489
-0.2817274 0.96434987 0.28900632 0.06544667 -0.009006097 -0.24630451 -0.036827374 0.33640325
0.3352516 -0.26680925 0.08555727 0.30669892 -0.31105196 0.057726678 0.35876465 -0.59401625
0.31318834 0.38833466 0.3687687 0.032315172 0.5833641 -0.62519884 0.025759848 0.6464027
0.07681466 1.0549059 0.13557197 -0.5699998 0.4844348 -0.22955729 -0.1287554 -0.10934218
0.249807 -0.22894242 0.21057472 0.18471068 0.3442112 0.4177568 0.3740699 0.09648313
-0.17901231 -0.3655992 -0.15763633 0.4509014 0.3915531 0.6236865 -0.09869488 -1.3233008
-0.019093627 -0.9314267 0.5644998 -0.1795661 0.08645673 0.69526243 0.35816652 0.034376305
-0.81263 -0.32669017 0.10215899 -0.024702277 0.06756669 -0.32391766 -0.5385535 -0.09461017
0.75525254 0.035553444 0.7497469 -0.03836144 0.05504964 -0.3383708 0.41430575 -0.3284764
-0.6958197 0.30480105 0.055414904 0.110434964 0.031231023 0.7962006 -0.08053332 0.19101205
-0.42339352 0.026989387 1.1324713 -0.21350972 -0.6009806 -0.41821313 0.25648314 0.17983513
0.7421531 -0.24506953 0.44892222 -0.54636353 -0.14223391 0.32232663 -0.38369265 -0.3884106
0.5075622 0.010214165 0.75790113 0.97771096 -0.19586357 1.0578125 0.72504073 0.34486437
0.6572528 -0.19174793 0.2158688 0.17642877 -0.41746673 0.5550711 0.48868972 -0.11800541
0.14834543 0.066602565 0.8197504 -0.017249815 0.07189153 -0.42673355 0.49449772 0.10626622
-0.21170826 -0.19079216 -0.47073427 0.13577108 -0.16265674 0.2160593 -0.15185235 -0.15884182
0.87313235 0.13581647 0.45314586 -0.12411119 -0.42970258 -0.36965626 -0.20167294 0.82702696
-0.19391474 0.24529496 0.17925176 -0.08260819 0.01821362 1.2184983 -0.41538683 -0.36711845
-0.3316764 0.023370428 0.41202283 -0.27061716 0.04427702 -0.20617524 0.4702442 0.31918067
0.6778097 -0.53497475 0.11182426 -0.18874669 -0.43582052 0.02857059 0.23800217 0.05423521
-0.03013525 -0.12955874 0.0029221042 1.0420405 -0.53752035 0.5904008 0.07324938 0.53744346
0.7493273 0.09549781 0.32646325 0.012832125 -0.05523562 0.801875 0.20338747 0.19722123
00000000: 32ea 563f f5f8 1cbf a2e3 a33d a71c 973e
00000010: 79d8 57bf a084 64bd 2985 803e 0ac4 56bf
00000020: 36b9 ba3d 2e21 483e 6303 17bf 40af 363f
00000030: 850c 2ebf 5974 0cbe 15f7 8ebe 0f33 9abf
00000040: a649 3f3f 2e39 29bd 336a 9fbe e0f6 a5bc
00000050: b795 f23d 0bda 1bbe dc58 423f d051 ec3e
00000060: b794 153f 4139 073f 3d79 acbe 916c 91be
00000070: b0d0 5c3f 7230 b9be 3d37 d9be bca4 04bf
00000080: 081e 2fbe 243f 1bbf f00b 03bf 2f8e 0c3f
00000090: b59b da3d 8760 513f c154 433f f58d c4bd
000000a0: ba5a 32be cf5d 1f3e 8e74 893d 93d7 d2be
000000b0: a63c 67bf 20d9 193f 4991 0f3f 6f25 d1bd
000000c0: 0f88 53bf 5c3c edbe 6455 5abd 98bc af3e
000000d0: b826 1fbf efc0 843e 1b12 943d d1b9 873d
000000e0: cf19 da3d 3562 093e 62a2 a83e a610 953e
000000f0: 9ce1 d8be 29ec 46bf 96d4 fdbd 6fe2 0c3e
00000100: 3536 10be 1176 3c3e 0e2e 53bd c584 d73e
00000110: 661a 08be 3b58 25bf 8c2d 783e 93b6 a43e
00000120: 01b3 35bf d6c5 63bf 31b5 063f 3d8d 793d
00000130: 97e1 d7be b084 22be 690b a33e 455b 093f
00000140: 933e 90be a2df 763f a3f8 933e e708 863d
00000150: 4f8e 13bc 4037 7cbe 4dd8 16bd 0c3d ac3e
00000160: 19a6 ab3e 399b 88be a638 af3d a407 9d3e
00000170: 3442 9fbe cf72 6c3d 00b0 b73e 7311 18bf
00000180: 395a a03e cdd3 c63e 40cf bc3e ea5c 043d
00000190: 5a57 153f 080d 20bf 5106 d33c a67a 253f
000001a0: 0151 9d3d 2807 873f 61d3 0a3e 82eb 11bf
000001b0: d707 f83e 1111 6bbe 75d8 03be cbee dfbd
000001c0: 68cd 7f3e e26f 6abe e6a0 573e cc24 3d3e
000001d0: 733c b03e 38e4 d53e 1786 bf3e f298 c53d
000001e0: 014f 37be d12f bbbe 6b6b 21be 8cdc e63e
000001f0: a679 c83e eba9 1f3f 8b20 cabd ec61 a9bf
00000200: 3d6a 9cbc fb71 6ebf 0f83 103f 2de0 37be
00000210: 3a10 b13d b8fc 313f 9a61 b73e 2bce 0c3d
00000220: 8508 50bf ef43 a7be bc38 d13d 6e5c cabc
00000230: 6860 8a3d 89d8 a5be a4de 09bf fac2 c1bd
00000240: 3b58 413f 7da0 113d 6aef 3f3f e320 1dbd
00000250: bb7b 613d f03e adbe e21f d43e 0f2e a8be
00000260: 3d21 32bf e20e 9c3e bdfa 623d ba2b e23d
00000270: 34d8 ff3c cdd3 4b3f a7ee a4bd aa98 433e
00000280: 09c7 d8be d918 dd3c d2f4 903f 4ba2 5abe
00000290: ddd9 19bf 0820 d6be c251 833e b326 383e
000002a0: bffd 3d3f 82f3 7abe 22d9 e53e 7bde 0bbf
000002b0: c4a5 11be ff07 a53e 5d73 c4be c1dd c6be
000002c0: 99ef 013f 5059 273c cf05 423f 444b 7a3f
000002d0: 7690 48be 6666 873f 459c 393f 1092 b03e
000002e0: b841 283f 9259 44be b60c 5d3e bea9 343e
000002f0: 33be d5be 2419 0e3f 8a35 fa3e d2ac f1bd
00000300: dde7 173e ed66 883d 2adb 513f 7c4f 8dbc
00000310: de3b 933d d27c dabe ce2e fd3e 1ba2 d93d
00000320: 0dca 58be 055f 43be 1504 f1be 9307 0b3e
00000330: 7d8f 26be a63e 5d3e 2f7f 1bbe 6ea7 22be
00000340: 9a85 5f3f 7913 0b3e bc02 e83e 022e febd
00000350: fa01 dcbe 9643 bdbe 5a83 4ebe 0ab8 533f
00000360: 9691 46be 9a2e 7b3e c68d 373e 7c2e a9bd
00000370: bb34 953c c1f7 9b3f 95ad d4be f3f6 bbbe
00000380: 7dd1 a9be 5773 bf3c a8f4 d23e 558e 8abe
00000390: d25b 353d 9a1f 53be d9c3 f03e a66b a33e
000003a0: f084 2d3f 1bf4 08bf 1e04 e53d d046 41be
000003b0: de23 dfbe df0c ea3c d7b6 733e bd25 5e3d
000003c0: 33de f6bc 0cab 04be c680 3f3b 9561 853f
000003d0: ef9a 09bf 8224 173f c503 963d e595 093f
000003e0: ead3 3f3f 5b94 c33d 3126 a73e d53d 523c
000003f0: bf3e 62bd ae47 4d3f ce44 503e 5df4 493e

value.stem.4.bias f4 [64]
-0.16304763 0.2600521 -0.28529066 -0.09128066 0.3592877 0.08040437 -0.3073734 0.223859
-0.10362317 0.06445528 -0.27797112 -0.37702596 -0.052495454 -0.34255397 0.16155894 -0.1875758
0.22923824 0.10226716 -0.13925312 -0.036302287 0.25702378 -0.06590178 -0.33868432 -0.22351064
0.41570982 0.014477371 -0.27847174 0.064091556 0.05863837 0.06547896 0.29330003 0.10622286
-0.26363766 0.08842931 -0.035886552 -0.060225338 -0.26691112 -0.09548968 -0.2421921 -0.18735902
-0.34171104 -0.20990762 -0.20230883 0.234576 0.019256113 0.10675608 -0.13495372 0.09357759
-0.009869849 -0.13405214 0.16257672 -0.22901535 0.13166577 -0.18305077 -0.09871231 -0.057454053
-0.20139739 0.22167276 -0.08114698 -0.16128004 0.01562636 -0.046397746 -0.16258363 -0.029559955
00000000: f5f5 26be 8d25 853e 9e11 92be 5bf1 babd
00000010: 8ff4 b73e 0cab a43d 0c60 9dbe 4b3b 653e
00000020: 6238 d4bd 2101 843d 3b52 8ebe 8c09 c1be
00000030: 7905 57bd 3c63 afbe b56f 253e df13 40be
00000040: 6ebd 6a3e 7271 d13d 5f98 0ebe b5b1 14bd
00000050: 9f98 833e 83f7 86bd 0868 adbe f9df 64be
00000060: ebd7 d43e 7f32 6d3c d993 8ebe 6f42 833d
00000070: ca2e 703d d519 863d 6c2b 963e 5f8b d93d
00000080: 84fb 86be 6d1a b53d c7fd 12bd d8ae 76bd
00000090: 93a8 88be 1890 c3bd 3501 78be 0bdb 3fbe
000000a0: c0f4 aebe 06f2 56be 0c2a 4fbe b134 703e
000000b0: ffbe 9d3c efa2 da3d 4f31 0abe 9ca5 bf3d
000000c0: 26b5 21bc f744 09be 837a 263e 0083 6abe
000000d0: 64d3 063e a971 3bbe ae29 cabd f154 6bbd
000000e0: 1e3b 4ebe 2ffe 623e 6330 a6bd 9826 25be
000000f0: da02 803c 900b 3ebd 537c 26be b827 f2bc
